src/main/resources/models/asl_modelov2_pruebav2.tflite (tflite, 68752 bytes, 6 tensors)

arith.constant f4 [3, 64]
00000000: 5a3e a13e 839e e7be 1f70 ef3d 80be d53e
00000010: d4be 89bd 3053 3bbe 1825 d0be 5c10 d4be
00000020: b05d f0be ac72 293e 97c2 c23d fc91 cebd
00000030: fa8c d8be d143 9bbe 2802 09bd a443 85be
00000040: 080d 22be e1d6 553d 65d4 e53d 2400 d1be
00000050: b7f2 afbe 833f d4be 002c b03e e014 5cbe
00000060: 841a 4d3e ad97 cebe da68 133d dd23 b13e
00000070: 8b06 903d 0447 9e3e 90ca 423e b38b 85be
00000080: 3d2d 9fbe 99cd 863e 8d28 b7be b64b 073e
00000090: 5293 c93e 47f3 543d 2e37 af3e 6215 833e
000000a0: 0160 d83e 370c 763a 80e2 d73e 41b2 34be
000000b0: 65d2 dabe 0242 363d 82e7 7f3c 3056 bfbe
000000c0: 375b c73e d1e6 81bd 7157 a1bc 093f 403e
000000d0: b9fa c9bd b05d 8d3e de79 87be b2eb c83d
000000e0: 9e9d adbe eff2 ce3e 87e6 c7bd 0e8c 5e3e
000000f0: 3470 de3e 35f0 353c bae0 8c3e ff25 c7be
00000100: 77b8 623e 945b c43d 229d 70be f4e8 8ebd
00000110: d09e 0a3e 8285 dfbe 4669 a4be 52ce 3e3e
00000120: e977 8b3e 4a8f 6b3e a800 0d3e f52a 903e
00000130: fd60 73be abd9 2e3e 353f cb3e fe47 3d3e
00000140: ddb6 373d f37f 17be 2a8e bdbe 3f0c de3d
00000150: 48dd 5cbd f266 043f 7d08 003e 5f79 01bf
00000160: f1ae 013e 94cd 9a3d 446e 0f3d 2d29 b3bd
00000170: 8e51 f3be 9fe8 efbd 44c9 debd 74ab 3fbe
00000180: a6a8 f03e b66f ccbe faf6 c23e 6113 0dbe
00000190: 0032 7e3c 8e4c abbe a4cf a63e 8577 26be
000001a0: 3976 a0be 6821 183e fdde a13d f5d9 143d
000001b0: d743 453e 04ea f23e 9ae4 3ebe 22a1 0b3e
000001c0: 2766 4abe d098 e6be e960 46be 7214 b33e
000001d0: 7639 463d 0d92 dbbe b310 25be 657f a4be
000001e0: b063 3c3e e330 42be 1e1a a93e a9e4 36be
000001f0: 1dca fabe 25c4 f3be 23e6 2fbd 5a29 aa3e
00000200: ca89 cebe a0c2 ec3d 8f6f 023e 0704 8cbe
00000210: dc16 aabe ce9a 2a3e fbe6 993e a55a 4c3e
00000220: f349 553e db07 e8be b036 cc3e 7364 a7be
00000230: 8915 943e 6f50 553c 5f74 d4be 67f5 dd3d
00000240: fd88 cc3e 90bf d9be e20e 91be a3af 5cbe
00000250: 9496 b53e a92d 5cbe da56 c5be df41 513e
00000260: 4607 06bf 6347 1a3e 6020 99be 8d62 28bd
00000270: eb1e f63c b03e 113e ab70 533e 78ff c83d
00000280: bdf5 b4be 872a 30be a6f2 013e c68d a2be
00000290: 6ef2 433d 32bd 793e 8efb 88be 36e9 b53e
000002a0: 32bf 49be 373f 24bf 02fa 23be 66dd b53e
000002b0: 8aee 2a3e 90c2 a8be c802 d33e 0ad7 e6be
000002c0: e0d2 01bc 666d 803e 0567 973e 95f1 f4be
000002d0: 7a30 123e 583e b53e e69b 733e a87d 9cbe
000002e0: e09f 69be 8607 7b3d d68c 2bbd 2282 03be
000002f0: 3d20 fb3d f9cb 2f3e 14e8 b63d 5d9e 7fbc
0.31492883 -0.45238122 0.11691307 0.41746902 -0.06725851 -0.18293452 -0.406533 -0.4141873
-0.46946478 0.1654765 0.09509771 -0.10086438 -0.42295057 -0.30325177 -0.033449322 -0.26028168
-0.15825284 0.052206878 0.11222152 -0.4082042 -0.34364864 -0.41454706 0.3440857 -0.21492338
0.20029646 -0.40350094 0.035988666 0.34597674 0.07032498 0.30913556 0.19022584 -0.26083145
-0.31089202 0.26328734 -0.35773125 0.13212475 0.3937021 0.05198982 0.34221786 0.2560225
0.42260745 0.00093859754 0.42164993 -0.17646123 -0.42738643 0.044496544 0.015619161 -0.37370443
0.3893678 -0.06342853 -0.019695016 0.18774046 -0.09862275 0.2761054 -0.26460165 0.0981058
-0.33909315 0.4041972 -0.097607665 0.21733114 0.4344498 0.011104633 0.27515203 -0.38896176
0.2214068 0.0958778 -0.23497441 -0.06978026 0.13537145 -0.43656546 -0.32111567 0.18633392
0.27239922 0.23003879 0.13769782 0.28157774 -0.23767467 0.17075221 0.3969666 0.18484494
0.044852126 -0.14794903 -0.37022525 0.108421795 -0.053921968 0.5171958 0.12503238 -0.5057582
0.12664391 0.07558742 0.035017267 -0.08748088 -0.4752316 -0.11714291 -0.10878232 -0.18717748
0.4700367 -0.3992898 0.38079053 -0.13776924 0.015514851 -0.33456844 0.32580292 -0.1625653
-0.31340197 0.14856493 0.0790386 0.036340673 0.1926416 0.47444165 -0.18641892 0.13635686
-0.1976553 -0.45038462 -0.19372906 0.34976536 0.048394643 -0.42884865 -0.16119651 -0.32128444
0.18397403 -0.18963961 0.33027738 -0.17860664 -0.48982325 -0.47610584 -0.042944085 0.33234674
-0.403395 0.11560559 0.12737869 -0.27346823 -0.33220565 0.16660616 0.30059037 0.19956453
0.2082899 -0.45318493 0.39885473 -0.32693824 0.2892268 0.013019665 -0.41495034 0.108378224
0.39948264 -0.42528963 -0.28331667 -0.21551375 0.35466444 -0.21501793 -0.38542825 0.20435284
-0.5235485 0.15066294 -0.29907513 -0.04110961 0.03004404 0.1418407 0.20648448 0.09814352
-0.35343733 -0.17203723 0.1269022 -0.3174879 0.04783862 0.24388579 -0.2675442 0.35529488
-0.19701841 -0.6415896 -0.16013339 0.35520476 0.16692558 -0.3296094 0.4121306 -0.45085937
-0.007923812 0.25083464 0.29570785 -0.47840562 0.14276305 0.35399127 0.2378994 -0.30564618
-0.22814894 0.06128647 -0.04188236 -0.1284261 0.12262008 0.17167653 0.08930984 -0.015601722

arith.constant1 f4 [64, 128]
00000000: 1591 df3c 33cc d1bc 324d ed3d a3cf 0f3d
00000010: 6832 20bd df98 b93c 6d48 a53c 85e5 123e
00000020: e3b9 693b 5e3f b53d b91f 613e 73ea 9cbd
00000030: b84b 1c3d 66cd 86bd 8f97 613e 26d7 cc3d
00000040: d496 83bd 6851 413d d34b 07be 768a a83d
00000050: fbd2 2f3e 0b15 aebb 21f6 a83d 6638 1bbe
00000060: b8f1 8a3e ed7d 123e 34f1 623d 6f9c 2d3e
00000070: e84e 123e 8cca bcbc 0331 dc3c 5240 983d
00000080: 36d6 ce3d 8eca 3fbe 1dc5 86be 8e81 413d
00000090: f794 4fbe f82c 2abe bc28 7e3e 80a4 2cbc
000000a0: a049 d9bc 7d3b b83d c833 0d3d c8a5 a0bc
000000b0: 1e86 0f3e 8da5 b6bd 26f1 39be ee48 c73d
000000c0: 6eee 0a3c 78ec 903c 840d 603d 85d3 1ebe
000000d0: 6b1f 2bbe 47fc 513d 9bcb 80bd 3dcf 983d
000000e0: 9082 1ebe f069 813e 9c68 0fbe 1804 4abe
000000f0: 80ee 45bd 4294 983d 6f69 e43c 1c72 fa3d
00000100: 48af 2b3d 13c6 273e 46a9 c83d e0df ba3d
00000110: 1071 bbbc 779c 2f3e 80c3 c43a cefe 03be
00000120: f5db c33c e1d4 27bd 0b2f e73d 0ee4 02be
00000130: 50d2 30bc 5cff 523e 3e92 c4bd 3e48 6c3d
00000140: 5022 61bc 8391 1a3e 372a 513d 51b6 36bc
00000150: 5a15 173e 5432 00be a8c4 55be 6697 23be
00000160: 780b 0b3d 9e28 c9bc 47eb 593e 16da c33d
00000170: 8346 0ebe 4c80 7c3d bb1b acbd a2cb b23d
00000180: ee9e 593d 2460 6abd 5f67 f3bc d744 a43d
00000190: 6bf1 03be 28cd 1e3d 080c 083e 9d7a 323e
000001a0: 7ce5 003d 946f 843e 238e 383e 22d9 093e
000001b0: 8692 f5bd 5fde 50bd 41be 073e 2c42 513c
000001c0: 1cc1 003d 7fc1 cd3d 7bf9 1d3e 28e4 ce3c
000001d0: 9c74 69bd 3246 e53d 1c24 3dbd 6a8a 873d
000001e0: 8c76 393e 1f66 f3bd bbe9 c23c 3148 4e3d
000001f0: e13b 2a3e 803c 1fbc c391 f1bd 9ba8 30be
00000200: f26c 113e b45c 46be 5ca0 753d 02a2 113e
00000210: b02d df3d f2a4 70bd 5ad0 503e 884e 20be
00000220: 94fd ecbd 7660 533e 49e9 25be 3e7f 67bd
00000230: 7320 333d fc62 29be 424e 083e aaf4 e7bc
00000240: 6fb0 87be d07d 363e 1d72 073e 6908 113e
00000250: e6c1 a03d fcc8 bdbd d74b 1fbe 7b12 083e
00000260: e494 a43d f41c 45bd 2762 143e 10eb 0cbe
00000270: 058f 1bbe 13f4 0f3e 54fe 82bd e224 453d
00000280: 86fd 30be d051 383d 6f4b 073e f73e 883e
00000290: 1407 603e f040 003c 4feb 9cbd fc2e 553d
000002a0: 3ce7 14bd 3298 f83d 727c b2bd 81ff 12be
000002b0: 1760 083e 66bf aebc bc4e 03be 0b5f 9fbd
000002c0: eade ff3d ea05 88bd 5387 2c3e e14a 3fbb
000002d0: 6fad 163e d9d6 c13e 36a4 873d d8a9 50bd
000002e0: 8852 7c3e 9d43 6cbd a08c 2fbd d59f 3b3d
000002f0: e058 aa3d ab9c f83d 6d58 e5bd 6594 f43d
00000300: accd 10bd 990f 18be 53d6 c1bd 4a78 113e
00000310: 2cc7 b7bd a76f 08be 3034 4cbd e181 febc
00000320: d9d1 133e 62c4 6f3e df1a aa3d 7802 babc
00000330: a3f6 0fbe 655a cbbd 8779 863d 8bc3 2cbe
00000340: 1b05 2a3e 482f 1ebe 21a7 7fbc d014 443d
00000350: 445b df3d 74b6 2d3e d9e4 313e d7de 2abe
00000360: 0a26 11be c939 9c3d 6bd2 593e d55b 163e
00000370: e203 ab3d d05d d9bd 7db1 313d 7145 e9bd
00000380: 2993 d8bd 8d68 c8bd 4961 30be a027 943e
00000390: 6342 39bd 7ff7 afbd 9463 b13d fe6c b43d
000003a0: 20b5 843c 619f 133b 54fc 693d 6049 bc3d
000003b0: c143 47bd d44d 1a3e b0e9 01bc 963c 18be
000003c0: 3130 c3bd 8f27 11be e4a7 6e3d d9f6 cabd
000003d0: e132 f33d 5d8e 663e f939 023e dac5 12be
000003e0: 6319 0ebe b5b0 423e 19d8 0d3e 54d5 10bb
000003f0: 5c0e 013e 0054 87bb 4df9 a1bd 5088 773e
0.02729086 -0.025610065 0.115869895 0.035110127 -0.03911057 0.022655902 0.020176137 0.14345367
0.0035663776 0.08849977 0.21984757 -0.07661905 0.03815815 -0.065821454 0.22030471 0.10001974
-0.064252526 0.047196776 -0.13212518 0.08229534 0.17170326 -0.005312567 0.0825007 -0.15158233
0.27137542 0.1430585 0.05540581 0.16954206 0.14287913 -0.0230458 0.02687884 0.07434143
0.10099451 -0.18729612 -0.2632226 0.047242694 -0.2027167 -0.16618717 0.24820226 -0.010537267
-0.026524365 0.089957215 0.03447321 -0.0196103 0.14016005 -0.08918295 -0.18158397 0.09730707
0.008479698 0.017690882 0.05470039 -0.15510376 -0.16711204 0.05126598 -0.06288835 0.074614026
-0.15479493 0.25276136 -0.14004749 -0.19728124 -0.048323154 0.07450153 0.027882306 0.12228796
0.041915208 0.16384153 0.09797911 0.09124732 -0.02288106 0.1714953 0.0015011877 -0.12890169
0.023908595 -0.0409745 0.112882696 -0.12782308 -0.01079233 0.20605224 -0.09598206 0.057686083
-0.013741091 0.15094571 0.05106565 -0.011151866 0.14754239 -0.12519199 -0.208758 -0.15975723
0.033946484 -0.0245555 0.21281157 0.09563081 -0.13894086 0.06164579 -0.08403727 0.08730246
0.053130083 -0.057220593 -0.029712377 0.08020943 -0.12885062 0.03876987 0.1328584 0.17429586
0.031468853 0.25866377 0.18022971 0.13461736 -0.11990838 -0.05099332 0.1325617 0.012772124
0.031434163 0.10046672 0.154272 0.025255278 -0.056995973 0.11195029 -0.046177015 0.06618197
0.18111628 -0.118847124 0.023793092 0.050361816 0.16624404 -0.009719014 -0.1179538 -0.17251818
0.14201716 -0.19371301 0.059967384 0.14221957 0.10897386 -0.058751054 0.2039198 -0.15654957
-0.11571804 0.20642266 -0.16202272 -0.056517832 0.043732118 -0.16541666 0.13311103 -0.028314907
-0.26501796 0.17821431 0.13227125 0.14163364 0.07849483 -0.0926685 -0.15556274 0.132883
0.08036211 -0.048123315 0.14490567 -0.13761544 -0.15191276 0.1405795 -0.063961655 0.048130877
-0.17284212 0.044999897 0.1321237 0.26610538 0.218777 0.007827982 -0.07662069 0.05204676
-0.036353335 0.12138404 -0.08715142 -0.1435528 0.13317905 -0.0213315 -0.12823004 -0.077818
0.12493689 -0.06641753 0.16848497 -0.0029188918 0.14714597 0.37859228 0.066231176 -0.050943226
0.24640858 -0.05768167 -0.04285872 0.045806725 0.08317733 0.12139257 -0.111985065 0.119423665
-0.035352394 -0.148497 -0.09464707 0.14206043 -0.08973536 -0.13323842 -0.049854457 -0.03106779
0.1443552 0.23414758 0.083059065 -0.022706255 -0.14058928 -0.09929351 0.06566148 -0.16871469
0.1660351 -0.15447724 -0.0156038115 0.04787141 0.109060794 0.16964132 0.17372455 -0.16686569
-0.14174667 0.07628209 0.21271674 0.14683469 0.0835035 -0.106135964 0.043382157 -0.11390198
-0.105749436 -0.097855665 -0.17224611 0.2893648 -0.045229327 -0.08592128 0.08661571 0.08809851
0.016199648 0.0022525417 0.057125404 0.09193683 -0.0486486 0.15068752 -0.007929251 -0.14866862
-0.09530676 -0.14175247 0.05826558 -0.09910364 0.11874939 0.22515245 0.12717427 -0.14333287
-0.13876872 0.19012721 0.13851966 -0.002209981 0.12603134 -0.0041298866 -0.079088785 0.24173093

sequential_3_1/dense_10_1/BiasAdd/ReadVariableOp f4 [64]
00000000: 829b 453d 4018 5f3d 1744 263d 3da6 b83c
00000010: 9efd cc3d 5701 453d dd5f 993d 9f1d d53d
00000020: ae52 7f3d 4c34 853d 27ec f03c 1047 183e
00000030: 5813 603d 965e 4e3d bfb3 dc3d cb08 063e
00000040: 3a29 2a3d c388 203d 3d11 ad3c cca5 cf3d
00000050: a870 f93c 8bea ba3d e011 043d e2e1 cd3c
00000060: ec48 493d 7160 943d 2412 8d3d 4803 e63c
00000070: 30b4 123d 27f9 083d 905d c8bc 66eb 933d
00000080: 0313 6a3d 59d7 193b baa3 9d3d b4c7 013d
00000090: a514 6d3c f89e 363d b6e9 b83d 45bb 753c
000000a0: 62f2 e33b 1ecb 003e f0e6 2b3d beb3 d23d
000000b0: 8b20 a63d 1579 083e ac23 cd3c 4525 953d
000000c0: 0e41 e53b 8004 7d3d 42c5 1e3d a17a 823d
000000d0: 013a c93c c6bb 3a3d 1581 143d eda7 283b
000000e0: d0ce d63d ff83 543d 0eb8 a03d 0dd1 2cbd
000000f0: ef9d 593d 862f 0e3d d88c 95bc e562 843d
0.048244007 0.054466486 0.04059228 0.022540206 0.10009311 0.04809698 0.074889876 0.104060404
0.06233471 0.065041155 0.029409481 0.14870858 0.054705948 0.050383173 0.10776471 0.13089292
0.041543223 0.039192926 0.021126384 0.10139045 0.030449226 0.09126767 0.03224361 0.025132123
0.04914181 0.07244957 0.06888226 0.028077736 0.03581637 0.033440735 -0.024458677 0.07222633
0.057147037 0.0023474304 0.07697244 0.031684592 0.014470254 0.0445852 0.09028952 0.014998262
0.0069563845 0.12577483 0.041968286 0.10288189 0.08111676 0.13327439 0.025041424 0.07282499
0.0069962805 0.06177187 0.03876234 0.06371046 0.024563791 0.04558923 0.036255915 0.0025734857
0.10488665 0.051883694 0.07847606 -0.042191554 0.053129133 0.03471329 -0.018255636 0.06464175

sequential_3_1/dense_11_1/BiasAdd/ReadVariableOp f4 [3]
00000000: ed15 d5bc 3a82 9a3c 87d7 d23b
-0.026011432 0.018860925 0.0064343843

sequential_3_1/dense_9_1/BiasAdd/ReadVariableOp f4 [128]
00000000: 232d e53c 09d7 9bbc 0000 0000 ef42 07bd
00000010: d086 8ebb 4093 97bc fcc2 3f3d b53b 0939
00000020: 1937 0f3d 8439 793d e6e6 29bb 771a 0dbd
00000030: 6858 8dbc 8f6b 4d3d 3f34 2b3d 8632 6a3c
00000040: 6639 14bd 8250 613d 2097 6bbd 0000 0000
00000050: 0000 0000 46f9 a53c 890c 88bc fe56 c2bb
00000060: f487 e13c c33f abbb 68d2 b23c 0000 0000
00000070: b6d1 36bc 3be0 b2bc 0961 efbc 24c2 2abc
00000080: 0000 0000 f240 6dbd 7a5d 5bbd 69f8 b4bc
00000090: 4702 39bd 0000 0000 b8c4 a23b 0000 0000
000000a0: 0000 0000 77b1 893b 0000 0000 0000 0000
000000b0: 62ed bf3c 1fb4 a23c e58d bdbc 0000 0000
000000c0: 984f 3d3d 0000 0000 1237 963c 1142 e43c
000000d0: 0000 0000 378c c83c 8a55 70bd 9568 8b3d
000000e0: 48c8 6b3c 701b 953d 5644 51bc 078d 80bd
000000f0: 16fb f03c 98e6 683d 2d30 65bd 8cea e03c
00000100: 0000 0000 0000 0000 0000 0000 2e0e 49bc
00000110: 7055 bdbb 29f8 ffbc 0000 0000 3f52 323b
00000120: 5049 e2bc fcae fabb d5e8 92bc 5797 28bc
00000130: 0000 0000 4ee3 643d 5fc3 c0bc a61c 51bc
00000140: e7ab c4bb 48f6 beb9 f800 13bc d42d 38bc
00000150: 7194 66bc b03f d4bc bbd1 27bd fc42 81bc
00000160: da56 1e3b 5f50 09bb 0fff e33c 0000 0000
00000170: eeba 273d 0000 0000 b444 5a3c 0000 0000
00000180: 6b5e 1dbd 1212 a8bc b168 bfbc bb0b 1c3c
00000190: e4da f9ba 0000 0000 00dc 1b3d 0000 0000
000001a0: 0000 0000 11d7 813d cdb1 87bc 7b39 10bc
000001b0: 8e4e c4bb abfc fc3b 0000 0000 b767 59bc
000001c0: 6f4b 28bd 8c88 e3bb b057 953d 0000 0000
000001d0: 8e3a ea3c f9f7 55bb 0000 0000 bc3a aabc
000001e0: 6703 263c 30e9 31bd d444 c53b daea 3cbc
000001f0: b036 3cbc 0000 0000 6046 37bd e918 103d
0.027975624 -0.019023435 0.0 -0.033022817 -0.004349567 -0.018502831 0.04681681 0.00013087581
0.034964655 0.060845867 -0.002592498 -0.034449067 -0.01725407 0.050151404 0.041797873 0.014294272
-0.036187552 0.05500842 -0.05751717 0.0 0.0 0.020260464 -0.01660754 -0.0059307804
0.027530648 -0.005226107 0.021828845 0.0 -0.011158397 -0.021835437 -0.029221075 -0.010422263
0.0 -0.057923265 -0.053555943 -0.022091107 -0.045168187 0.0 0.0049672984 0.0
0.0 0.0042020637 0.0 0.0 0.023428623 0.019861279 -0.02313895 0.0
0.046218485 0.0 0.018336806 0.027863534 0.0 0.024480922 -0.058675326 0.06807057
0.0143910125 0.07280624 -0.01277264 -0.06276899 0.029416602 0.056860536 -0.055954147 0.02745559
0.0 0.0 0.0 -0.012271447 -0.005778007 -0.031246262 0.0 0.0027209667
-0.027622849 -0.0076502543 -0.017933289 -0.0102899885 0.0 0.055880837 -0.02353066 -0.012763178
-0.0060019377 -0.00036423118 -0.008972399 -0.011241395 -0.014073477 -0.025909275 -0.0409715 -0.015779011
0.0024160654 -0.0020952446 0.027831582 0.0 0.040949754 0.0 0.013322044 0.0
-0.038420122 -0.02051643 -0.02336535 0.009524281 -0.0019062427 0.0 0.038051605 0.0
0.0 0.06339849 -0.016564274 -0.008802767 -0.0059908098 0.00772055 0.0 -0.013269356
-0.041087564 -0.006943768 0.07292116 0.0 0.028592374 -0.0032649024 0.0 -0.02077996
0.010132647 -0.043435276 0.006020168 -0.011530602 -0.011487648 0.0 -0.04474485 0.035180006

sequential_3_1/dense_9_1/MatMul f4 [128, 63]
00000000: 29d0 b1bd 9870 eb3d 5972 cabb 9d08 edbc
00000010: ec37 303e 7d8e 2fbe dd72 b7bd 081b b13d
00000020: 930a 36be 9b0a 673d 50eb ba3c 4659 18be
00000030: eaf6 b1bd 47e5 663e 805b 37be 0ef3 5abd
00000040: 41fc a03c 9410 a3bd 722d a83c 6e7f 68be
00000050: ae2a 993d 2d6b a1bd a6e5 4bbe b707 9c3c
00000060: a53f 9e3d b43c 2f3e cc90 0d3e 2e88 0c3e
00000070: 2461 25be 4f52 a6bd 40f2 02be 5fe8 85bd
00000080: 941d e53d e131 9e3c 9dc0 123e 0b70 243e
00000090: 55b8 4fbe a02e 0c3e 3ab0 3d3e 4613 1abe
000000a0: cda7 24be a429 d83d 5577 28bd f5ab cabd
000000b0: eb75 61bc 5ca5 f83d 96c0 313e e0a0 483e
000000c0: a9a9 35bc 275e 8e3e 3755 a03e dfe4 a33d
000000d0: 0c03 843d 523e 203e 0924 7d3d 9bb6 12be
000000e0: c4f1 ba3d 58da 703c dc32 84bd 1aa2 bfbc
000000f0: 93ee d1bd 59d2 08be 9f3c e23b f733 41be
00000100: 6ac9 cb3d b01d c33d 3131 9abd c588 843d
00000110: 4ced 2d3e 595d f33d 2ce3 6abd e2dc 6c3e
00000120: 3b54 7dbd 3e49 71bd 6964 3b3d a417 fa3d
00000130: b7b0 443e 7b65 3ebd 7a53 c1bd e4ab 03be
00000140: ce55 073d d5e0 853c f48f 903d 6803 4d3e
00000150: 8447 08be d60c 69bd df5e 8d3e 4f24 79be
00000160: 8375 b4bd fe6f 1e3d 8d6e 703d cdca c53d
00000170: 62a7 6c3e d246 113d bee7 adba 6aa0 f93d
00000180: 3b3a 24bc 72f7 bebd 772f cabd 4f4a 0c3e
00000190: 7c2a 23be 79f7 8c3d 7688 4bbe 4b48 5e3d
000001a0: d667 ed3d 1f97 813d a9b6 c63d 09e5 04be
000001b0: f4dd 963d 6e76 01bd 8bb6 52bd 2418 243e
000001c0: 4170 d13d caf3 143e da77 81bd d6a9 38be
000001d0: 3e91 3fbe 776b 2c3e dbfd 0bbe 8244 57be
000001e0: e484 393e f2b5 823d ff26 0c3e 7fdf 7d3e
000001f0: 38c1 97bc 2de1 633d 2c6e 5dbd 9be8 87bd
00000200: dc35 11bd b079 65bd 7546 16be 28dc a33d
00000210: 0046 a639 a6ee 34be b01d d2bd 0cb3 193e
00000220: 036d c2bd 9830 d43c a870 113e 2e35 0c3e
00000230: f4a9 cf3d d04d 2fbd 10da e13d 58bb 1cbe
00000240: b88e 923c bd31 0dbe b072 1bbe 4269 8bbd
00000250: 40fa f6bc 86ca 823d 5eac 1cbe 882d da3c
00000260: 483c 993c 9640 16be 08f0 46bd e0fc 393d
00000270: 4423 b4bd 40ac 7a3d 0ebe 1e3e 83f2 a8bd
00000280: bca6 d83d 1c6e b03d bf64 e7bd 406e cdbb
00000290: 2840 9c3d 3011 05be 80d1 ae3a 4ccb 863d
000002a0: eaf0 1a3e 31d9 e7bd cc3c f0bd c8b3 093e
000002b0: 359e d4bd 8a25 9fbd 2095 8bbb 20a3 26bd
000002c0: 40c1 e53d cf9b b9bd 3f5c 94bd 8451 153e
000002d0: 0c3c 3cbd 57f0 16be 934f 06be 833c 24be
000002e0: e19c afbd 1022 203d e0dd e9bc 885b 1b3e
000002f0: 554c 11be 7eed 393e 3707 88bc 5c54 163e
00000300: 4379 3c3e 0c11 9f3d 52d2 e93d 61c0 b7bd
00000310: 40f7 003e 58d9 f53d 4525 a5bc 9d2c 0d3e
00000320: c558 a03d fc9f ac3d 7be7 bb3c 5534 6fbd
00000330: 48dc eb3c 87f1 bdbd bccc 2e3e d312 123e
00000340: 8930 083e 2458 633e 4238 abbd 1c2f c93d
00000350: 5640 813d 167e 643e 7513 edbb 3b26 6d3d
00000360: b296 4a3e 63bf 213e 3a55 4d3e e09a 603d
00000370: 401a 683d 5913 663d 212e 94bd 3a4f bbbc
00000380: f8d8 9e3e 7638 aa3c 8ef1 7abe e421 853e
00000390: 8adc 93bd d4bd 063e 4915 3f3e 4af9 533c
000003a0: a2cb 1abd 045f c9bc 7f68 453d af0b 833b
000003b0: 3a4a d3bd c158 703d 7e42 49be d9b5 1ebe
000003c0: ec16 29bd 818c 963d 5f43 8bbd 7a9f 53be
000003d0: 5892 90bd ceee 553e 21ef a3be 5978 90bd
000003e0: 3ece 043e 7e79 83be e0af 3cbe cf1a 933c
000003f0: a66c f3bc d8ec 9cbd 9b5e f0bd 8341 93bd
-0.086822815 0.11496085 -0.006178182 -0.028934771 0.17208833 -0.17144199 -0.08957455 0.08647734
-0.17777471 0.0564066 0.022817284 -0.14877805 -0.08689673 0.225484 -0.17905998 -0.05345445
0.019651534 -0.079621464 0.020529483 -0.2270486 0.07478844 -0.0788177 -0.19911823 0.019046647
0.07726983 0.17113 0.13824767 0.13723823 -0.16150337 -0.08121168 -0.12787724 -0.06538462
0.11187282 0.019310893 0.14331289 0.16058366 -0.20285161 0.13689661 0.18524256 -0.15046415
-0.16079636 0.10554817 -0.04112943 -0.098960795 -0.013761024 0.12140915 0.17358622 0.19592619
-0.011087813 0.27806208 0.31315014 0.08002638 0.06445894 0.15648773 0.061801944 -0.14327471
0.091281444 0.014700495 -0.06455013 -0.023392726 -0.102505825 -0.13361491 0.0069041993 -0.1886748
0.09950526 0.09527147 -0.07528914 0.06471399 0.16985053 0.11883039 -0.057345554 0.23131135
-0.061847907 -0.05890774 0.045750055 0.1221154 0.19208036 -0.046483498 -0.0943975 -0.1285854
0.033040814 0.01634256 0.07058707 0.2002083 -0.13308531 -0.056897007 0.27611443 -0.24330257
-0.08811476 0.038681023 0.05869918 0.09657822 0.23110726 0.03546793 -0.0013267917 0.121888
-0.010023649 -0.0932454 -0.098723345 0.13700221 -0.15934175 0.06883139 -0.19876274 0.054268163
0.11592071 0.06327652 0.097028084 -0.12977995 0.07366553 -0.031607084 -0.051443618 0.16024834
0.10226489 0.14546123 -0.06321688 -0.18033537 -0.18707749 0.1683787 -0.13671057 -0.21022227
0.181171 0.063823596 0.13686751 0.24792288 -0.018524751 0.055634666 -0.054060146 -0.06636163
-0.035451755 -0.056024253 -0.14675315 0.08000976 0.0003171414 -0.17669162 -0.10259569 0.15009707
-0.094934486 0.025902078 0.14203131 0.13692161 0.10139838 -0.042798817 0.1102792 -0.15305841
0.01789032 -0.13788505 -0.15180469 -0.06807186 -0.030148625 0.063862845 -0.15300128 0.02663304
0.018705502 -0.14673075 -0.048568755 0.045407176 -0.08795789 0.061199427 0.15502188 -0.082493804
0.10578677 0.08614752 -0.11298513 -0.0062692463 0.07629424 -0.12994838 0.0013337582 0.065817446
0.15130964 -0.11320723 -0.11730346 0.13447487 -0.10381738 -0.07770832 -0.0042597204 -0.040682912
0.112185 -0.09062921 -0.07244157 0.14581877 -0.045955703 -0.1474012 -0.13116293 -0.16038708
-0.08574844 0.039094985 -0.028548181 0.15171635 -0.14189275 0.18157002 -0.016605003 0.14680618
0.18405633 0.07766923 0.114170685 -0.0897224 0.12594318 0.12004346 -0.020159373 0.1378655
0.078294314 0.08428952 0.022937527 -0.058399517 0.028791562 -0.09274583 0.17070287 0.14264993
0.13299765 0.22201592 -0.0836034 0.098234385 0.06311099 0.22313723 -0.0072349855 0.057897788
0.19784048 0.15795664 0.20052043 0.0548352 0.05666566 0.056170795 -0.07235361 -0.022864927
0.3102491 0.020778876 -0.24506208 0.2600242 -0.07219799 0.13158351 0.18660463 0.012937853
-0.037791856 -0.02458144 0.04819536 0.0039991955 -0.10316892 0.058678392 -0.19654271 -0.15499057
-0.041281626 0.07351018 -0.067999594 -0.20666304 -0.07059163 0.20891878 -0.32018378 -0.070542045
0.129693 -0.2567863 -0.18426466 0.01795712 -0.029714894 -0.07662362 -0.117367946 -0.0719023
