src/main/resources/models/asl_videosv2.tflite (tflite, 300772 bytes, 8 tensors)

arith.constant f4 [64, 128]
0	0x3dac2b1e	0.084066615
1	0xbdbee60f	-0.09321224
2	0xbdb5b883	-0.088730834
3	0xbe1dcec3	-0.15410905
4	0x3d4b03ec	0.049564287
5	0x3e202741	0.15639974
6	0x3c37a794	0.011209387
7	0x3d9f70d2	0.07785191
8	0x3d9cabe2	0.076499715
9	0x3b807534	0.0039202217
10	0x3d1761f1	0.03695864
11	0x3d85596b	0.06511196
12	0x3c16893a	0.009187991
13	0xbc17acbc	-0.009257492
14	0xbe0b4e09	-0.13603987
15	0xbaad4cd5	-0.001322175
16	0xbbb3f075	-0.005491311
17	0xbd99ee3b	-0.07516142
18	0xbbb0762c	-0.005385181
19	0xbb6a2dd9	-0.0035732894
20	0x3d53ba31	0.051691238
21	0xbe22cd3c	-0.15898603
22	0xb99c793b	-0.00029844962
23	0xbe29a666	-0.16567382
24	0x3d0b3ab1	0.03399152
25	0xbd6637c4	-0.056205526
26	0x3dcece01	0.10097886
27	0x3e160d71	0.14653565
28	0x3df3dd7b	0.119074784
29	0x3e2f44a3	0.17116027
30	0xbd37eb2b	-0.044902008
31	0xbe2f7b30	-0.17136836
32	0x3d14a01e	0.036285512
33	0x3d6a4dd3	0.057203125
34	0x3c8a30a5	0.016868899
35	0xbd59078b	-0.05298571
36	0xbdb89ccf	-0.09014284
37	0x3dcc70b8	0.09982437
38	0x3e0644d5	0.13112195
39	0xbcc03c50	-0.02346626
40	0xbdeec1fb	-0.116580926
41	0x3d424913	0.04743297
42	0x3d4ca441	0.049961332
43	0xbdf6a8c8	-0.12043911
44	0xbd8241a2	-0.06360175
45	0x3dbe5fe8	0.092956364
46	0x3c461c9d	0.012091783
47	0xbdc51fb6	-0.09625189
48	0xbccc4a32	-0.024937723
49	0x3d29ab11	0.041422907
50	0x3e0ddad2	0.13853005
51	0xbdb96861	-0.09053112
52	0xbda59436	-0.080849096
53	0x3c42a30d	0.011879695
54	0xbd42adfa	-0.0475292
55	0xbd0822ce	-0.033236317
56	0x3d40ce14	0.04707153
57	0xbd12bf9a	-0.035827257
58	0x3df8e511	0.12153066
59	0xbcd50b66	-0.026006412
60	0xbdfe7f81	-0.12426663
61	0x3dcb840f	0.099372976
62	0xbd974da9	-0.073878594
63	0xbcd5ba90	-0.026089936
64	0xbd3ebd4f	-0.046567257
65	0xbd23abab	-0.039958637
66	0x3dc91815	0.098190464
67	0xbc2df8fd	-0.010618445
68	0xbe29f822	-0.16598561
69	0xbd6ead43	-0.058270704
70	0xbb3e24e2	-0.0029013683
71	0x3d03ebf6	0.03220745
72	0xbdf6e5e0	-0.12055564
73	0x3cb6ab1b	0.022298386
74	0x3daece51	0.085354455
75	0x3dbf7588	0.09348589
76	0x3ccad13c	0.024757974
77	0xbd96de99	-0.07366676
78	0xbc33328a	-0.010937342
79	0xbe1e41e5	-0.15454824
80	0xbd262b82	-0.040568836
81	0x3daff8c9	0.08592374
82	0xbdcf4cb2	-0.1012205
83	0x3c369922	0.011144908
84	0xbcaac00d	-0.02084353
85	0xbdf0fb69	-0.11766703
86	0x3dd6dd85	0.1049147
87	0x3e137fdb	0.14404242
88	0xbe288859	-0.16458263
89	0xbdf4c0e0	-0.119508505
90	0xbdc9146e	-0.0981835
91	0x3c021591	0.007939712
92	0x3c060e4c	0.00818212
93	0x3dea907f	0.11453342
94	0xbe1a4b62	-0.15067819
95	0x3e0cd9ba	0.13754931
96	0x3e010892	0.12600926
97	0x3d99ce8c	0.07510099
98	0xbe0481a6	-0.12940082
99	0xbe45266f	-0.19252943
100	0xbbd9e190	-0.0066492036
101	0x3db15ffc	0.08660886
102	0xbc85c954	-0.016331352
103	0xbd4605a1	-0.048345212
104	0x3dd8f80d	0.10594187
105	0x3e1cc73f	0.15310381
106	0xbe162327	-0.14661847
107	0xbd96bb2d	-0.0735992
108	0x3d298a92	0.041391917
109	0xbd8eb8e8	-0.06968862
110	0xbe12ce64	-0.14336544
111	0x3d47b1a1	0.048753385
112	0xbdb2e9de	-0.08736013
113	0xbe01549d	-0.12629934
114	0xbd1639e6	-0.03667631
115	0xbda4d39d	-0.080481745
116	0xbcd41b97	-0.025892062
117	0x3d89074c	0.06690845
118	0x3c1b2920	0.009470254
119	0x3cde31b8	0.027123317
120	0xbd9753a8	-0.07389003
121	0x3dccce6f	0.100003116
122	0x3d79e9d8	0.061014026
123	0xbdc71535	-0.09720842
124	0x3e50975c	0.20370239
125	0x3ceb8afc	0.028752796
126	0x3e0a60dc	0.13513511
127	0x3e2a4e1c	0.16631359
128	0x3dd0304c	0.10165462
129	0x3cf381fd	0.02972507
130	0xbce3fff1	-0.027832003
131	0xbd9bbc56	-0.076042816
132	0x3c18baba	0.009321863
133	0x3d46cde8	0.04853621
134	0xbe45c5de	-0.19313762
135	0xbe3f1905	-0.18661888
136	0x3de43c4d	0.11144314
137	0xbcd1611f	-0.025559006
138	0xbe1cfa6b	-0.15329902
139	0x3db2cc73	0.08730402
140	0x3da84e2f	0.08218037
141	0xbd438cce	-0.047741704
142	0x3cf66a90	0.03008011
143	0x3d315abe	0.04329943
144	0x3de9928d	0.114049055
145	0x3cfa2b20	0.030538142
146	0xbe236392	-0.15955952
147	0x3e022281	0.12708475
148	0xbe4e440a	-0.20143142
149	0xbe35c4b9	-0.17750825
150	0xbde1b38f	-0.11020576
151	0x3c4cf03c	0.012508448
152	0x3c8c9df2	0.017165158
153	0xbd9adc07	-0.07561498
154	0x3df0de4c	0.1176115
155	0xbe2b7d95	-0.16747124
156	0x3e39264c	0.18081015
157	0x3daed141	0.08536006
158	0xbe1f11e4	-0.15534168
159	0x3c923f51	0.017852457
160	0x3da1c6d9	0.07899255
161	0x3e04aa9e	0.1295571
162	0xbdf00398	-0.117194355
163	0x3e44e715	0.19228776
164	0xbd13907c	-0.036026463
165	0x3cb29397	0.021798892
166	0xba31484f	-0.0006762789
167	0x3e56f21f	0.209908
168	0xbd538bb3	-0.0516469
169	0xbe1982ed	-0.1499135
170	0xbdd2685d	-0.10273812
171	0xbd116181	-0.035493378
172	0x3d7b21df	0.0613116
173	0x3d7a9d21	0.061185006
174	0xbceb2616	-0.028704684
175	0x3dd055a2	0.10172583
176	0x3da0304c	0.07821712
177	0x3dd2ffd4	0.103027016
178	0xbd210d6f	-0.039319452
179	0x3ddb678c	0.107131094
180	0xbdfd5668	-0.12369996
181	0x3d72f362	0.05931414
182	0xbda03b26	-0.07823782
183	0xbd9372fa	-0.071996644
184	0x3d60a29f	0.054842588
185	0x3dc2f084	0.09518531
186	0x3cf7d407	0.03025247
187	0xbe1f62bf	-0.15565012
188	0x3cd6662e	0.02617177
189	0xbdf79acb	-0.12090071
190	0x3db6ae7f	0.08920001
191	0xbdadc482	-0.084847465
192	0x3ccc233f	0.02491915
193	0x3d5ab4af	0.05339497
194	0x3debc5de	0.115123495
195	0xbe14a89d	-0.14517446
196	0x3d4b65ba	0.04965756
197	0xbd1a2a70	-0.037638128
198	0x3d9d3406	0.07675938
199	0x3e033145	0.12811764
200	0x3d81512f	0.06314313
201	0x3dce2d3f	0.10067224
202	0xbcde1263	-0.027108377
203	0xbe39214e	-0.18079111
204	0x3e0325da	0.12807408
205	0xbe1b048b	-0.15138452
206	0x3de27903	0.110582374
207	0xbdab25af	-0.08356797
208	0xbd95952c	-0.07303843
209	0x3dd67ec4	0.104733974
210	0xbe371b55	-0.1788152
211	0x3e0527ad	0.13003416
212	0xbdbed163	-0.09317281
213	0xbe19080e	-0.14944479
214	0x3e217721	0.157681
215	0x3db49762	0.088179365
216	0xbe401e25	-0.18761499
217	0xbe19d166	-0.15021285
218	0xbe0411ce	-0.12897417
219	0x3cf5f10a	0.030022163
220	0x3e1366dd	0.14394708
221	0x3df5027c	0.119633645
222	0x3bafd4f5	0.0053659626
223	0x3ba6b70b	0.0050877384
224	0x3c2e1855	0.010625918
225	0xbdc7a4d0	-0.09748232
226	0x3e1a5943	0.15073113
227	0x3e21e2d3	0.15809183
228	0x3d5a4e1a	0.05329714
229	0x3d85e930	0.065386176
230	0x3e089fce	0.1334221
231	0xbe1b27a7	-0.15151845
232	0x3e11bc2e	0.14231941
233	0xbe090b89	-0.13383307
234	0x3de349d3	0.11098065
235	0x3df28677	0.118420534
236	0x3dde2fec	0.10848984
237	0xbd750948	-0.059823304
238	0xbe225953	-0.15854387
239	0xbe1c1890	-0.15243745
240	0x3e0d1655	0.1377805
241	0x3dae11ef	0.08499514
242	0x3d81be04	0.06335071
243	0xbdf7eeac	-0.1210607
244	0x3db5d474	0.08878413
245	0xbd625ac1	-0.05526233
246	0x3e1cf457	0.15327583
247	0xbe13d7bc	-0.14437765
248	0xbe2266ef	-0.15859579
249	0x3d8bbdda	0.06823321
250	0xbb6712f3	-0.0035259097
251	0xbdd8cf89	-0.10586459
252	0xbdec8a92	-0.11549868
253	0x3dd026f5	0.101636805
254	0x3e1d6ae6	0.1537281
255	0xbe2cb715	-0.16866715

arith.constant1 f4 [64]
0	0x3e3b734d	0.18305703
1	0xbdc1786e	-0.09446798
2	0xbe7e8afe	-0.24857709
3	0xbf2277db	-0.63464135
4	0x3e3dbecf	0.18529819
5	0x3f0f74d5	0.56037647
6	0x3f756c7f	0.95868677
7	0x3ed64082	0.4184609
8	0x3e727844	0.2367869
9	0x3e919be1	0.2843924
10	0x3de80980	0.11329937
11	0x3e9625e0	0.2932577
12	0xbf4a63f4	-0.79058766
13	0x3e173c0c	0.14769
14	0x3ef36d8c	0.47544515
15	0x3f36b043	0.71362704
16	0x3d0402fe	0.032229416
17	0x3e1aea82	0.1512852
18	0x3ead3cf5	0.3383557
19	0xbd1d9298	-0.03846988
20	0x3e187fc5	0.1489249
21	0xbec03154	-0.37537634
22	0x3f8db3be	1.1070478
23	0xbc9c920d	-0.019112611
24	0xbf1f5281	-0.62235266
25	0xbde71bdb	-0.1128461
26	0xbe18ce0b	-0.14922349
27	0x3d7a7e87	0.061155822
28	0xbdc91204	-0.09817889
29	0x3d850d06	0.06496625
30	0x3f82dfc4	1.0224538
31	0xbecbf4f9	-0.39835337
32	0xbf4832af	-0.7820234
33	0x3f277f20	0.6542835
34	0xbeb0acea	-0.34506923
35	0x3dd71da6	0.10503702
36	0xbefe7ed2	-0.4970613
37	0xbf707021	-0.93921095
38	0x3dcfb0c7	0.101411395
39	0x3e9df8e1	0.30853942
40	0x3cf2d417	0.029642148
41	0x3e4b5580	0.19856834
42	0x3e10dc58	0.14146554
43	0xbf088278	-0.5332408
44	0x3e573169	0.21014942
45	0xbf042200	-0.5161438
46	0x3e9692d6	0.29408902
47	0xbf34a064	-0.70557237
48	0xbf1fb334	-0.6238282
49	0x3e7fcc29	0.24980225
50	0xbeaf40f1	-0.34229234
51	0x3e7c5e2c	0.24645299
52	0x3f14fd7d	0.5819929
53	0xbe4fcbc3	-0.20292573
54	0xbbcd8b29	-0.0062726927
55	0xbf0b74c5	-0.5447505
56	0x3e5f858e	0.21828291
57	0x3efb01ed	0.49024907
58	0xbdb01655	-0.085980095
59	0x3f5b58b4	0.85682225
60	0x3eaded2b	0.33970007
61	0x3f056b45	0.52116805
62	0x3de55aad	0.11198936
63	0xbeacde7e	-0.33763498

arith.constant2 f4 [128, 256]
0	0xbe5543e2	-0.20826676
1	0x3e938cb0	0.28818274
2	0x3d1be94f	0.038064297
3	0x3ef2e437	0.4743974
4	0x3eed5a62	0.4635802
5	0x3ed06aa2	0.40706354
6	0x3ea99c19	0.33126906
7	0x3e73a74e	0.2379429
8	0x3edebd19	0.43503645
9	0x3e09970a	0.13436523
10	0xbe9eb4e0	-0.30997372
11	0x3e925a12	0.28584343
12	0x3f1b10f7	0.6057276
13	0xbcb8f5c4	-0.022578128
14	0xbc815b52	-0.015790615
15	0x3e5a09ac	0.21292752
16	0xbf281b34	-0.6566651
17	0xbe22bb74	-0.1589182
18	0x3f01c5fd	0.5069273
19	0xbdd16eca	-0.102262095
20	0xbd279623	-0.040914666
21	0x3e452640	0.19252872
22	0xbe27597c	-0.1634273
23	0xbec06900	-0.3758011
24	0x3efb7d5e	0.49119085
25	0xbea987fb	-0.33111557
26	0x3e6d45bf	0.23171137
27	0xbefa284e	-0.48858875
28	0xbd4e96cf	-0.05043679
29	0xbee8d1d9	-0.454726
30	0xbcaba140	-0.020950913
31	0x3db2b249	0.087254114
32	0xbe7cb4eb	-0.2467839
33	0xbe9ae648	-0.30253816
34	0xbe73d5fb	-0.23812096
35	0x3ecefa45	0.40425315
36	0xbd9f7b13	-0.077871464
37	0xbece52f9	-0.40297678
38	0x3eb29105	0.34876266
39	0x3e962a1f	0.2932901
40	0xbcf78305	-0.030213842
41	0xbea2d05d	-0.31799594
42	0x3e3032bc	0.17206854
43	0x3e0822a8	0.1329447
44	0x3ee274e7	0.44229814
45	0x3eacd27e	0.33754343
46	0xbe6965b5	-0.22792704
47	0xbe984137	-0.29737255
48	0xbdf6f0e3	-0.12057664
49	0xbcd76090	-0.026291162
50	0x3cd52ce5	0.026022384
51	0xbef11ebb	-0.47093758
52	0x3e507a09	0.20359053
53	0xbe941831	-0.28924707
54	0x3e7a7e7c	0.24462312
55	0xbef79026	-0.48352164
56	0xbefaa62c	-0.48954904
57	0x3d0afc39	0.033931945
58	0xbe576cf2	-0.21037653
59	0xbb18f00f	-0.0023336445
60	0x3f039c34	0.5141022
61	0xbf0f1259	-0.5588737
62	0xbe017bae	-0.12644836
63	0x3e8ee4d6	0.27908963
64	0x3e4503c2	0.19239715
65	0x3e6c4dcb	0.2307655
66	0x3ec4b143	0.3841649
67	0x3eb7f296	0.35927266
68	0xbc896e36	-0.016776185
69	0x3ee12faa	0.43981677
70	0x3ef45c11	0.4772649
71	0x3e25ce9b	0.16192095
72	0xbd035d47	-0.032071378
73	0x3dac361c	0.08408758
74	0x3e97c7fe	0.2964477
75	0x3ef82fee	0.48474067
76	0xbd868ed8	-0.06570214
77	0xbdb320bd	-0.08746479
78	0xbe922b22	-0.28548533
79	0xbe981d4f	-0.2970986
80	0xbee7ffdd	-0.45312396
81	0x3dcd1ba8	0.10015041
82	0x3e5d48f9	0.21609868
83	0x3bc57b1c	0.0060266387
84	0x3ef8fcd6	0.486304
85	0xbe6eb9b2	-0.23313025
86	0xbf0c2914	-0.5475018
87	0x3caad072	0.020851348
88	0xbebc4086	-0.36767977
89	0x3ebd7e24	0.370103
90	0x3da56b5d	0.080771185
91	0xbe4d9358	-0.20075738
92	0x3ea0840d	0.31350747
93	0xbeac80c4	-0.3369199
94	0xbec1d93e	-0.37861055
95	0x3d818f52	0.06326164
96	0x3ed48752	0.4150949
97	0xbe8f497f	-0.2798576
98	0x3ead2bb2	0.338224
99	0x3dcc1ca5	0.09966401
100	0xbf0be6d8	-0.54649115
101	0xbe4708a2	-0.19436887
102	0xbf0720bd	-0.5278433
103	0x3f05fd03	0.5233919
104	0x3e2bbe4c	0.16771811
105	0x3f44fbb2	0.76946557
106	0xbdf3661f	-0.118847124
107	0xbf20999d	-0.62734395
108	0x3e13c420	0.14430285
109	0xbf16ca7f	-0.58902735
110	0x3e71cead	0.23613997
111	0xbe4fb09f	-0.2028222
112	0xbee53904	-0.44770062
113	0xbe2388ee	-0.15970203
114	0x3df53e6d	0.119747974
115	0x3e796386	0.24354371
116	0x3dddd823	0.108322404
117	0xbc3a4ece	-0.011371328
118	0xbd0a4109	-0.03375343
119	0x3d3d9273	0.046282243
120	0xbe8be848	-0.27325654
121	0xbee6b968	-0.4506333
122	0xbe7e17b3	-0.24813728
123	0x3ecc801f	0.399415
124	0x3ec50ae6	0.38484877
125	0xbecf196c	-0.40449083
126	0x3f0d4691	0.551858
127	0xbd4f3baa	-0.05059401
128	0xbf23159c	-0.6370485
129	0xbe6e2286	-0.23255357
130	0x3f07df50	0.5307512
131	0xbe0a8046	-0.13525495
132	0x3e6c550c	0.23079318
133	0x3edb094d	0.42780533
134	0xbe976ba0	-0.295743
135	0xbee58906	-0.44831103
136	0x3c958dd4	0.018256105
137	0x3ec19dc4	0.37815678
138	0x3f0062f5	0.50150996
139	0xbdf4a4b5	-0.11945478
140	0xbe8005ab	-0.25004324
141	0xbe6d37df	-0.23165844
142	0x3f1c32b0	0.61014843
143	0x3eae4290	0.34035158
144	0xbea1310d	-0.31482735
145	0x3e597bde	0.21238658
146	0xbe3c41cd	-0.18384476
147	0x3f0f87c4	0.56066537
148	0xbe31b466	-0.17353973
149	0x3df09e09	0.11748893
150	0xbc664aa0	-0.014055878
151	0xbdcb34e7	-0.099222
152	0xbee55502	-0.44791418
153	0x3f1fc8c1	0.624157
154	0x3ebd4217	0.36964485
155	0xbedda9b1	-0.43293527
156	0xbdae6dc1	-0.08517028
157	0x3e3de11c	0.18542904
158	0x3ea1c5ff	0.31596372
159	0xbe8cc191	-0.2749143
160	0x3e4a8e01	0.19780733
161	0xbd8db5ab	-0.06919416
162	0xbe35d702	-0.177578
163	0xbdb02703	-0.08601191
164	0x3f001eef	0.500472
165	0xbf1be534	-0.6089661
166	0xbeffbeea	-0.49950343
167	0xbe97c510	-0.29642534
168	0xbeacae63	-0.33726797
169	0xbe962169	-0.29322365
170	0x3b30fbe5	0.002700561
171	0x3f1056fb	0.5638272
172	0x3f1ba998	0.60805655
173	0x3e21340d	0.15742512
174	0xbd95418f	-0.07287895
175	0xbea44bc1	-0.32089046
176	0x3ebd3d1e	0.3696069
177	0xbea280a1	-0.3173876
178	0xbe5e7904	-0.21725851
179	0xbe845e72	-0.25853306
180	0xbebf6be6	-0.37387007
181	0x3e0c1d4f	0.13683055
182	0x3e7716c9	0.24129786
183	0x3edab73b	0.4271792
184	0xbe01998c	-0.1265623
185	0xbd98e840	-0.07466173
186	0xbe43b3d6	-0.1911157
187	0x3e062cc2	0.13103011
188	0x3e580f9f	0.21099709
189	0xbe81f330	-0.2538085
190	0x3f09c30e	0.53813255
191	0x3e0950a2	0.13409665
192	0x3e7e4f0b	0.2483484
193	0x3e8a566c	0.2701906
194	0x3e2bd5fc	0.16780847
195	0x3ea50a20	0.32234287
196	0x3f168466	0.58795774
197	0x3cf31477	0.029672844
198	0x3e6c4c9f	0.23076104
199	0xbde35e73	-0.11101999
200	0x3d8cf75c	0.068831176
201	0xbe856e54	-0.26060736
202	0xbd4f4149	-0.05059937
203	0xbdbdcc6c	-0.09267506
204	0x3ea9efe4	0.33190835
205	0xbeff5717	-0.49871132
206	0x3dcb5b7d	0.099295594
207	0x3c6c9085	0.014438753
208	0xbea0ebd9	-0.31429937
209	0xbeb520a5	-0.35376468
210	0x3b12e697	0.0022415274
211	0x3da28a09	0.07936484
212	0x3c8a9f2b	0.0169216
213	0x3e404287	0.18775378
214	0x3eb17b9a	0.34664613
215	0xbdf83726	-0.12119894
216	0xbe666f5d	-0.22503419
217	0xbe1ac6b5	-0.15114863
218	0xbdae7dd3	-0.08520093
219	0x3e773b59	0.24143733
220	0xba8280d6	-0.0009956609
221	0xbeafbda0	-0.3432436
222	0xbe4d568e	-0.20052549
223	0x3e7fb08b	0.2496969
224	0xbdf40943	-0.11915829
225	0x3e6f418f	0.23364852
226	0x3da192db	0.078893386
227	0xbbe72326	-0.0070537506
228	0x3e2d53a1	0.16926433
229	0xbe35b45c	-0.17744583
230	0x3d1a9e32	0.037748523
231	0xbef64f4b	-0.4810737
232	0x3e7680d9	0.24072589
233	0xbe41d532	-0.18928984
234	0xbe8f4cb5	-0.2798821
235	0xbe9ab5a0	-0.30216694
236	0x3d9a70f2	0.07541074
237	0xbeb5dfb8	-0.35522246
238	0x3e087da4	0.13329178
239	0x3de6b334	0.11264649
240	0xbed0d866	-0.407901
241	0x3da98011	0.0827638
242	0xbda8a617	-0.08234804
243	0x3eb1b477	0.34707996
244	0xbf0dc57a	-0.5537945
245	0x3eac3c49	0.33639744
246	0x3ef77146	0.48328608
247	0x3d17e90e	0.037087493
248	0xbe2ebbfa	-0.17063895
249	0x3e146157	0.14490257
250	0xbe384eea	-0.17998853
251	0x3e982746	0.29717463
252	0xbda9530e	-0.082677945
253	0x3bb6d045	0.005579027
254	0xbeb673f5	-0.35635343
255	0x3b96d7b4	0.0046033505

arith.constant3 f4 [128]
0	0x3f24bec0	0.6435356
1	0xbee0cb36	-0.43905038
2	0x3eb20813	0.34771785
3	0x3ebcdcb5	0.36887136
4	0xbe13ff91	-0.1445296
5	0x3ea11d59	0.31467703
6	0x3e0db92f	0.13840173
7	0xbf101465	-0.5628112
8	0x3edc7607	0.43058798
9	0x3f5420d2	0.8286258
10	0xbe20bf2e	-0.1569793
11	0xbf310149	-0.69142586
12	0x3f76c112	0.9638835
13	0xbf083d7a	-0.53218806
14	0x3e9180d9	0.28418615
15	0x3d77c7d8	0.06049332
16	0x3e955dd5	0.2917315
17	0xbfa926c6	-1.3214958
18	0xbe6315fd	-0.22176357
19	0xbdcfd36d	-0.10147748
20	0x3dd6ca35	0.10487787
21	0xbe2c54f7	-0.16829287
22	0x3f61b263	0.8816282
23	0xbfdf3636	-1.7438419
24	0x3ed6a73e	0.4192447
25	0x3ebe104c	0.3712181
26	0x3d21017f	0.039308067
27	0x3f31446d	0.69245034
28	0xbe85bedd	-0.2612218
29	0x3e0b7d32	0.13621977
30	0x3f63b81d	0.8895281
31	0x3eada1b4	0.33912432
32	0xbec8b940	-0.39203835
33	0xbf17aafa	-0.59245265
34	0x3ef5b3cc	0.47988737
35	0x3e05b91e	0.13058898
36	0xbd789fe7	-0.06069937
37	0x3d945214	0.07242218
38	0x3e1d1d90	0.15343308
39	0x3f6a6492	0.9155971
40	0xbf087060	-0.5329647
41	0x3f1a1939	0.60194737
42	0xbf5584ef	-0.83405966
43	0xbf248cf1	-0.6427756
44	0xbef08641	-0.46977428
45	0xbd0cf798	-0.03441581
46	0xbe850860	-0.25982952
47	0x3f60a574	0.8775246
48	0x3d4a4387	0.049380805
49	0xbeeaaf88	-0.45837045
50	0x3f144562	0.5791837
51	0xbf28ae8c	-0.6589134
52	0x3d9e8d66	0.07741813
53	0xbeb6ccda	-0.35703164
54	0x3f2499db	0.64297265
55	0x3d9c64f9	0.076364465
56	0xbfcd8f77	-1.6059407
57	0xbf8267e1	-1.0187951
58	0xbf2e9ce0	-0.6820812
59	0x3ecaaf96	0.39587086
60	0xbdb394d4	-0.08768621
61	0x3ebb9b98	0.36642146
62	0x3d95ff82	0.07324125
63	0x3df41774	0.11918536
64	0x3e310914	0.1728862
65	0x3e363744	0.1779452
66	0x3f28e7a3	0.6597845
67	0x3fae1d4f	1.3602694
68	0xbf04100b	-0.5158698
69	0x3e85d48e	0.2613873
70	0x3f3b12c6	0.7307552
71	0x3eeb6583	0.45975885
72	0x3d1d8c2a	0.03846375
73	0xbe8e540d	-0.277985
74	0x3de3fbd7	0.11132019
75	0x3e6845a1	0.22682811
76	0xbe3cf197	-0.18451534
77	0xbe92686f	-0.28595302
78	0xbec77b19	-0.38961104
79	0x3f229b48	0.6351819
80	0x3e08b299	0.1334938
81	0x3cbccec9	0.023047822
82	0x3e1daa12	0.15396908
83	0xbe06d2d3	-0.1316636
84	0x3ecd1c85	0.4006082
85	0xbe31d5a2	-0.1736665
86	0xbf4d23be	-0.80132663
87	0xbf45b39b	-0.7722718
88	0x3e2e103b	0.16998379
89	0xbea41896	-0.32050008
90	0xbe2e15f3	-0.1700056
91	0xbe94a631	-0.29033044
92	0xbcdb93a4	-0.026803799
93	0x3de6f953	0.112780236
94	0xbf98eb0c	-1.1946731
95	0xbd74a8e0	-0.059731364
96	0x3ebef577	0.3729665
97	0xbd53a806	-0.05167391
98	0xbf373ea7	-0.71579975
99	0x3daae73d	0.083448865
100	0x3fc5e68d	1.5460984
101	0xbf82e17c	-1.0225062
102	0x3f18975f	0.59605974
103	0x3f5e9a96	0.8695463
104	0x3f61a414	0.8814099
105	0x3ea7ffd0	0.32812357
106	0x3ef1d3d4	0.47231925
107	0xbccfdd2d	-0.02537402
108	0xbc9322ce	-0.017960932
109	0xbe1ac89c	-0.15115589
110	0x3ec9c5d6	0.3940875
111	0xbf01796b	-0.50575894
112	0x3fd4c860	1.662365
113	0x3eae135b	0.33999142
114	0xbe0ca8ab	-0.13736217
115	0xbe0aa0fa	-0.1353797
116	0x3f030b48	0.5118909
117	0x3f0afaa9	0.5428873
118	0x3f00f19d	0.5036867
119	0x3e6f506d	0.23370524
120	0x3f8cb062	1.0991328
121	0xbe90bf95	-0.28271165
122	0xbb902110	-0.0043984726
123	0xbd677c51	-0.05651504
124	0x3e817ed1	0.25292066
125	0x3f2f9a36	0.6859468
126	0xbee1c176	-0.4409291
127	0xbf991084	-1.1958165

arith.constant4 f4 [4, 64]
0	0xbe54476a	-0.20730367
1	0xbe18b3af	-0.14912294
2	0xbe8d50f5	-0.27600828
3	0x3e8de350	0.27712488
4	0x3e91ab5a	0.28451043
5	0x3bedacbf	0.007253259
6	0xbe13a96e	-0.14420101
7	0xbe99d199	-0.30042723
8	0xbca946e4	-0.020663686
9	0x3c57ce45	0.013171737
10	0xbd833b8f	-0.06407844
11	0xbc86f701	-0.016475203
12	0xbe77321d	-0.2414021
13	0xbe784253	-0.2424405
14	0xb9de7320	-0.00042428914
15	0x3e101619	0.1407093
16	0xbe5450ca	-0.20733944
17	0x3e3c7213	0.18402891
18	0x3e46a826	0.19400081
19	0x3e803b2b	0.25045142
20	0x3d32e6e5	0.04367723
21	0xbd9c7b59	-0.07640714
22	0x3d88ce53	0.06679978
23	0x3e5f9f46	0.21838102
24	0x3e8f3ab7	0.27974483
25	0xbe7e43ca	-0.24830547
26	0xbe7ad6dd	-0.24496026
27	0xbe1f521a	-0.15558663
28	0xbdb425f1	-0.08796299
29	0x3e1caa48	0.15299332
30	0xbd959d8c	-0.0730544
31	0xbe7917f9	-0.24325551
32	0x3c119332	0.008885192
33	0xbe34ecae	-0.17668411
34	0xbe040743	-0.12893395
35	0xbe0f4c48	-0.13993943
36	0xbe601ed1	-0.21886756
37	0x3e69999c	0.22812504
38	0xbd1ffa5d	-0.039057124
39	0x3e5641ff	0.20923613
40	0xbe309540	-0.17244434
41	0xbe027a99	-0.1274208
42	0xbe5d5273	-0.21613483
43	0x3e19360c	0.14962023
44	0x3c9ae11f	0.018906174
45	0xbd67384b	-0.05645017
46	0x3c29c010	0.010360733
47	0xbe3db4ec	-0.18526047
48	0x3dd88fd4	0.10574308
49	0xbe1fd77b	-0.15609543
50	0xbddd43e2	-0.10803963
51	0x3e6ac2d4	0.22925884
52	0x3d89d8b4	0.06730786
53	0x3e699051	0.22808959
54	0x3cf78567	0.030214978
55	0x3da29826	0.07939176
56	0x3d0aee10	0.03391844
57	0x3e8668f3	0.26251945
58	0x3e52acfc	0.20573801
59	0xbc889a79	-0.01667522
60	0x3dd3316b	0.1031216
61	0xbcf27744	-0.029597886
62	0xbe141fed	-0.14465304
63	0x3e67a1c7	0.22620307
64	0xbe8dc1e6	-0.27686995
65	0x3dfb44e3	0.122689985
66	0xbdaa209d	-0.08307002
67	0x3e89eccd	0.26938477
68	0xbdfef9f6	-0.1245002
69	0x3e86d4bd	0.2633418
70	0xbd130e95	-0.03590258
71	0xbe71c94c	-0.23611945
72	0xbd8b4f21	-0.06802202
73	0xbdb766d1	-0.089551575
74	0x3d764756	0.060126625
75	0x3cfddf34	0.03099022
76	0xbd20a995	-0.039224226
77	0x3d0d6b24	0.034526005
78	0x3e98d75a	0.298518
79	0x3e5f6d94	0.21819144
80	0x3e97f462	0.29678637
81	0x3e491f37	0.19640814
82	0xbe3a40e0	-0.1818881
83	0xbd6534e3	-0.05595864
84	0xbd7b4c6d	-0.061352182
85	0x3e8ca6a0	0.27470875
86	0xbdfa3045	-0.12216238
87	0x3e9fb846	0.31195277
88	0xbdcf8d83	-0.10134413
89	0x3e70442e	0.23463508
90	0x3e415ce1	0.18883087
91	0xbe6a1f2a	-0.2286345
92	0xbe7e2d0c	-0.24821872
93	0xbe85b0b0	-0.26111364
94	0x3e49035a	0.19630185
95	0xbe4b062b	-0.19826572
96	0x3e1f11d5	0.15534146
97	0x3e816fba	0.25280553
98	0xbd9d80e5	-0.076906
99	0xbddffb52	-0.109366074
100	0xbe5dc52a	-0.21657243
101	0xbe024159	-0.1272024
102	0xbe68dadd	-0.2273974
103	0xbe76f7ca	-0.24117962
104	0xbe20ed35	-0.15715487
105	0xbdc2831d	-0.09497664
106	0x3e8c42c9	0.27394703
107	0xbe2589d6	-0.16165861
108	0xbe9274c7	-0.2860472
109	0x3d95ef34	0.07321015
110	0x3e71774f	0.23580669
111	0xbdacdd1c	-0.08440611
112	0x3e279665	0.16365965
113	0xbe78343e	-0.24238679
114	0xbe613bde	-0.21995494
115	0xbe059049	-0.13043322
116	0x3dfcc3a1	0.12342001
117	0x3e4615b9	0.19344224
118	0xbde97335	-0.11398927
119	0xb99f24b5	-0.00030354192
120	0x3e8d3b36	0.27584237
121	0xbe2a8bfc	-0.16654962
122	0x3d62e35e	0.055392615
123	0x3db30661	0.08741451
124	0xbe4a556c	-0.19759148
125	0xbcbe709a	-0.023247052
126	0x3e047c60	0.1293807
127	0xbd7f229b	-0.06228886
128	0x3d106abb	0.035258036
129	0xbdcfbba4	-0.101432115
130	0xbd8a6ed3	-0.06759419
131	0xbdd8dce7	-0.10589009
132	0x3d9681c7	0.07348972
133	0xbe0bb777	-0.13644205
134	0x3e7adf45	0.24499233
135	0xbc5fd43d	-0.013661441
136	0xbe5581f2	-0.20850351
137	0xbe2b9fde	-0.16760203
138	0x3c4325b7	0.011910847
139	0xbe83a41a	-0.25711137
140	0xbe102884	-0.14077955
141	0xbe021b94	-0.12705833
142	0xbd326732	-0.043555446
143	0xbd882a0a	-0.06648643
144	0x3e593b6b	0.21214072
145	0x3cf302f9	0.029664503
146	0x3de6071a	0.11231823
147	0x3e1080fc	0.14111704
148	0xbcefa47b	-0.029253235
149	0xbcf61b20	-0.030042231
150	0xbe0edc45	-0.13951214
151	0xbdd43416	-0.10361497
152	0xbdeacf43	-0.11465313
153	0xbe854cef	-0.26035258
154	0xbe932634	-0.28740084
155	0xbe65ed19	-0.22453727
156	0xbe2ba987	-0.16763888
157	0x3e70484a	0.23465076
158	0x3e7884e9	0.24269451
159	0x3e8266a9	0.25468948
160	0xbe725a92	-0.23667362
161	0x3e646edc	0.22307914
162	0xbd691cc9	-0.056912217
163	0xbe3f2b87	-0.18668948
164	0x3df7026a	0.12061007
165	0xbe8650fc	-0.2623366
166	0x3e89961d	0.2687234
167	0xbe23f414	-0.16011077
168	0xbdd81bc3	-0.1055217
169	0x3e009d57	0.1256002
170	0xbe8f8a75	-0.28035322
171	0xbdc939c2	-0.098254696
172	0x3d37c5fe	0.044866554
173	0xbde987ea	-0.11402877
174	0x3c8af497	0.016962333
175	0x3e80016d	0.25001088
176	0xbe4febde	-0.2030482
177	0x3e4ed8d0	0.20199895
178	0xbd85a409	-0.06525428
179	0x3e9668af	0.29376742
180	0x3e2d3eea	0.16918531
181	0x3e11648e	0.14198515
182	0x3de6b685	0.112652816
183	0xbe6dfc51	-0.23240782
184	0xbe68b836	-0.22726521
185	0xbe038059	-0.1284193
186	0xbe3e4e05	-0.1858445
187	0x3e8413fd	0.257965
188	0xbcec13ee	-0.028818097
189	0x3e0ed9e4	0.13950306
190	0x3e5a9f9f	0.21349953
191	0xbd318b2a	-0.043345608
192	0x3e050fbd	0.12994285
193	0xbce9c7e9	-0.028537707
194	0xbe003400	-0.12519836
195	0xbdb7a63c	-0.089672536
196	0xb9fc743a	-0.0004815178
197	0x3de8d878	0.11369413
198	0xbe720b0f	-0.23637031
199	0xbe548072	-0.20752123
200	0xbd1c6f42	-0.03819204
201	0xbe571d2c	-0.21007222
202	0x3dbbb402	0.09165193
203	0x3e1c872b	0.15285937
204	0x3de2b773	0.110701464
205	0xbc4e0a83	-0.012575748
206	0xbd03530d	-0.032061625
207	0xbe9a7180	-0.3016472
208	0x3e17cfe5	0.14825399
209	0x3da13c7a	0.07872863
210	0xbe83006e	-0.25586265
211	0xbdd562cc	-0.10419235
212	0xbd96ca5b	-0.07362815
213	0xbe801674	-0.2501713
214	0x3e4c79b0	0.19968295
215	0x3dcdaf8d	0.10043249
216	0x3d31867b	0.04334114
217	0x3e1a9b06	0.15098199
218	0xbd9490b4	-0.072541624
219	0xbe43549f	-0.19075249
220	0xbe51edba	-0.20500842
221	0x3d7f86e7	0.062384512
222	0xbe304115	-0.17212327
223	0xbe060eca	-0.13091579
224	0xbd48920c	-0.048967406
225	0xbe81da6f	-0.25361964
226	0x3e6a74e7	0.22896157
227	0x3e701809	0.23446669
228	0xbe22f20c	-0.15912646
229	0x3aebb448	0.0017982805
230	0x3e0fb7bf	0.14034937
231	0x3baf2861	0.0053453897
232	0xbccad793	-0.024760997
233	0xbe576304	-0.21033865
234	0x3e0d7a8e	0.13816282
235	0x3e828d9e	0.2549867
236	0x3e8e55f4	0.27799952
237	0xbe360ff2	-0.1777952
238	0xbe382a1c	-0.17984813
239	0x3df6374e	0.12022267
240	0xbdf4412a	-0.119264916
241	0x3dd304a8	0.103036225
242	0xbcb1861f	-0.0216704
243	0xbe0f521b	-0.13996165
244	0x3e5561ce	0.20838091
245	0xbc2e2164	-0.010628078
246	0xbe41b730	-0.18917537
247	0x3c5d6eb6	0.013515165
248	0xbd923ec6	-0.07140879
249	0x3d82d59e	0.063884005
250	0xbe1be799	-0.15225066
251	0x3e34b09f	0.176455
252	0x3dda3b9c	0.10655901
253	0x3e7738f1	0.24142815
254	0xbc15830f	-0.009125485
255	0x3dbcf75f	0.0922687

arith.constant5 f4 [4]
0	0xbc0b644d	-0.0085078
1	0x3ce342e6	0.02774186
2	0xbc658a8c	-0.014010083
3	0xbc4bee25	-0.012446915

arith.constant6 f4 [256]
0	0x3cbec7de	0.023288663
1	0xbcba18c0	-0.02271688
2	0xbcb67575	-0.022272805
3	0xbc0c8b8e	-0.008578194
4	0x3b880a7e	0.0041516414
5	0xbcdadb75	-0.026715973
6	0x3c4d19d2	0.012518363
7	0x3ac6f810	0.001518013
8	0x3b85f959	0.0040885624
9	0x3b66d229	0.003522048
10	0xbccc89c7	-0.024968041
11	0xbc8f8d87	-0.01752354
12	0xbc9e461e	-0.019320544
13	0x3cafd03d	0.0214616
14	0xbcae8a8f	-0.021306304
15	0xbb166e4f	-0.0022953933
16	0x3bb1d087	0.0054264697
17	0x3c0536c9	0.008130738
18	0x3bae48fb	0.0053187585
19	0xbca51665	-0.02015228
20	0x3b200650	0.0024417825
21	0x3c410cc3	0.011782828
22	0xbbb9d580	-0.005671203
23	0xbcd5e367	-0.02610941
24	0x3a8108ce	0.0009844543
25	0x3bae893e	0.005326419
26	0x3cea0836	0.028568368
27	0x3c5bb04e	0.0134087335
28	0x3bee3fab	0.0072707734
29	0x3b6e57ef	0.003636833
30	0xbc795c71	-0.015219794
31	0xbc77693d	-0.015100774
32	0x3b216c3e	0.0024631168
33	0xbcc8187b	-0.024425736
34	0x39b281fc	0.00034047652
35	0xbc217a93	-0.009855884
36	0xbca43708	-0.020045772
37	0xbc23922f	-0.009983583
38	0xbc131981	-0.008978249
39	0x3ba2d91d	0.0049697296
40	0x3b7ca829	0.003855238
41	0xbcd8f00e	-0.026481654
42	0x3c21e83e	0.009882031
43	0xbd1b29b6	-0.037881576
44	0x3b55c101	0.003261626
45	0xbbb8c593	-0.005638787
46	0xbc6d0f9d	-0.0144690545
47	0xbc17272f	-0.009225651
48	0xba008bda	-0.0004903652
49	0x3b155a4f	0.0022789424
50	0x3c7407ef	0.01489447
51	0xbbfe4c7c	-0.0077605825
52	0xbc60a6d8	-0.013711654
53	0xbc7b1ecd	-0.015327168
54	0xbbd5f6c8	-0.0065296628
55	0xbc1a6ded	-0.009425622
56	0x3b4c08f1	0.003113326
57	0x3c016fe3	0.007900211
58	0x39f77208	0.0004719647
59	0x3c530f2d	0.012882036
60	0xba547086	-0.00081039255
61	0x3aaeb8f6	0.0013330269
62	0x3b85e611	0.004086264
63	0x3caeca9b	0.021336844
64	0xbb9d3e1c	-0.004798664
65	0x3a1a1010	0.0005877027
66	0xbc9177b4	-0.017757274
67	0xbc2dd320	-0.010609418
68	0xbc26007d	-0.010131952
69	0xbc88bb6e	-0.016690936
70	0xb9e6aa4c	-0.000439959
71	0xbb7c29b6	-0.003847701
72	0xbc2e11e6	-0.0106243845
73	0x3c0fb3c5	0.008770888
74	0x3b832c32	0.004003071
75	0xb99a96fc	-0.0002948566
76	0xbce4e79a	-0.027942467
77	0xbc4353c5	-0.011921828
78	0xbc55ac17	-0.013041518
79	0xbb2b0729	-0.0026096797
80	0x3b6c1720	0.0036024526
81	0x3957bdb4	0.00020574668
82	0xb9849f20	-0.0002529556
83	0x3c600540	0.013673127
84	0x3c84b82c	0.016201101
85	0x3c43358c	0.011914622
86	0x3c69953f	0.014256774
87	0xbbdeebcc	-0.0068030115
88	0x3b058555	0.0020373662
89	0xbc46f2bc	-0.012142833
90	0xbc5c85bb	-0.013459618
91	0x3c2cfd85	0.010558491
92	0xbc998f13	-0.01874498
93	0x3bfb7181	0.007673443
94	0x3ca0c249	0.019623892
95	0xbac84a20	-0.001528088
96	0xbce36cf1	-0.027761908
97	0xbc47c2ea	-0.012192467
98	0xbc7bc871	-0.015367613
99	0x3c8138fb	0.01577424
100	0xbbb7ea9d	-0.005612685
101	0xbab87761	-0.0014073664
102	0xbca2d95b	-0.019879034
103	0x3bf454a6	0.00745638
104	0xbd0a7671	-0.03380436
105	0xbb4a45a1	-0.0030864256
106	0x3c23e1b6	0.010002544
107	0xbc832218	-0.016007468
108	0x3bf5dcc0	0.007503122
109	0xbc831176	-0.015999537
110	0xbc3319c4	-0.010931436
111	0x3c057a17	0.008146784
112	0xbca9543d	-0.02067005
113	0xbbde1bd4	-0.0067782197
114	0xbc67c5fa	-0.014146322
115	0xbc15ebe3	-0.009150478
116	0xbc34f018	-0.011043571
117	0xbb0a8ca6	-0.0021140962
118	0xbc5fed92	-0.013667481
119	0x3c33d78c	0.010976683
120	0xbce5ff4e	-0.02807584
121	0xbc1b3de0	-0.009475201
122	0xbae0c845	-0.0017149529
123	0xbbbf3266	-0.0058348654
124	0xbc27e8bf	-0.010248362
125	0xbc0f8671	-0.008760081
126	0xbb8455f1	-0.0040385653
127	0xbbfa6aee	-0.0076421415
128	0x3c248cbb	0.010043318
129	0xbcbbd630	-0.022929281
130	0x3d003183	0.031297218
131	0xbbb8f1d3	-0.005644062
132	0x3bc017ae	0.005862198
133	0xbc31042a	-0.010804215
134	0x3aa0418a	0.0012226563
135	0x3bd87e2b	0.0066068373
136	0xbb83825c	-0.004013343
137	0xbbe82c01	-0.007085324
138	0xbc14a4a8	-0.00907246
139	0x3c892b62	0.01674432
140	0x3c358319	0.011078619
141	0xbbbe8a49	-0.0058148247
142	0x3c6db029	0.014507332
143	0x3c67f584	0.014157657
144	0xbb7a207c	-0.0038166335
145	0x3b22e656	0.002485653
146	0xbcac3eb8	-0.021026
147	0x3bccee6c	0.006254008
148	0xbc0d5b5b	-0.008627738
149	0x3b0a2c95	0.0021083702
150	0xbc4637f6	-0.012098303
151	0xbcdc3c93	-0.026884353
152	0xbca954b8	-0.02067028
153	0xbc3af9e6	-0.0114121195
154	0xbc18d4c5	-0.009328072
155	0x3c9e0230	0.019288152
156	0xbc88eed1	-0.016715439
157	0x3b93d811	0.004511841
158	0xbbd7fcda	-0.0065914216
159	0xbc01f1dd	-0.0079312
160	0xbc245c3b	-0.010031755
161	0xbb8075db	-0.0039202995
162	0xbb384360	-0.002811633
163	0xbc983dc3	-0.018584138
164	0xba4ab092	-0.00077319995
165	0x3983695e	0.00025064772
166	0x3c7cf66e	0.015439613
167	0x3c7cbf68	0.015426494
168	0xbb74ae78	-0.0037335437
169	0xbc6f4634	-0.01460414
170	0xbd07475b	-0.033027034
171	0xbca36204	-0.019944198
172	0x3c8f7d24	0.017515726
173	0x3cccd146	0.025002133
174	0xbcc4c4a0	-0.02401954
175	0x3c285c1c	0.010275867
176	0x3c3c304e	0.011486126
177	0x3cdb61a4	0.026779957
178	0x3b71e21a	0.0036908449
179	0x3bd35d91	0.006450363
180	0xbb0f1cfc	-0.0021837344
181	0xbba34020	-0.0049820095
182	0xbc4214ed	-0.011845809
183	0x3c739ef5	0.014869441
184	0x3b553b15	0.0032536436
185	0x3c928441	0.01788533
186	0x3bc3d6b2	0.0059765214
187	0x3c70918a	0.014683137
188	0x3c8e21e4	0.017350145
189	0xbc4412f1	-0.011967407
190	0xbcb43d1a	-0.022001792
191	0x3cd6bda2	0.02621347
192	0xbcde5809	-0.027141588
193	0x3bc94d45	0.0061432444
194	0xbb49cbb7	-0.003079159
195	0x3c957f32	0.018249128
196	0xbd02194f	-0.031762417
197	0xbb4856b2	-0.0030569253
198	0xbcab8fde	-0.020942625
199	0xbd164c1f	-0.03669369
200	0xbccc001b	-0.024902394
201	0xbb1d56db	-0.0024008069
202	0x3c7ccf26	0.015430247
203	0xbcc2dfee	-0.023788419
204	0xbc7ea12a	-0.015541354
205	0x3c4b1793	0.012395757
206	0xbc234b1f	-0.009966641
207	0x3c9c1d1d	0.019056851
208	0x3c5c2f31	0.013438986
209	0x3c5cadfa	0.013469214
210	0xbbb30a76	-0.0054638935
211	0xbb954aed	-0.004556051
212	0xbc113e6c	-0.00886498
213	0x3cdbc6e0	0.02682823
214	0xbbe70c22	-0.007051007
215	0xbc965ff6	-0.018356305
216	0x3c39acdd	0.011332718
217	0xbc9629b6	-0.018330436
218	0x3bd0b726	0.0063694892
219	0xbc3e97ff	-0.011632918
220	0xbca8b16c	-0.020592414
221	0xbaa86358	-0.001284699
222	0x3baa0ae0	0.0051892847
223	0xbced656b	-0.028979024
224	0xbc8a53c0	-0.016885638
225	0xbd18a3e4	-0.037265673
226	0x3c2ff5c0	0.010739744
227	0xbcf0f119	-0.02941184
228	0xbc7076fa	-0.014676804
229	0xbd008215	-0.031374056
230	0xbc1bbfb2	-0.009506153
231	0xbce3d8d2	-0.027813349
232	0xbbdca629	-0.006733675
233	0xbc8751df	-0.016518531
234	0xbc91145d	-0.017709905
235	0x3c815ea9	0.015792208
236	0x3c6d3369	0.014477589
237	0x3b9e7662	0.0048358897
238	0x3b2a118e	0.0025950405
239	0x3bdf6fc0	0.0068187416
240	0x3b191786	0.0023359968
241	0xbc839582	-0.016062502
242	0x3cbb6a6a	0.02287789
243	0xbbd144a8	-0.0063863583
244	0xbb7e8b2f	-0.0038840284
245	0x3ce14170	0.027497023
246	0xbc6b8c0f	-0.014376654
247	0x3c18e281	0.0093313465
248	0x3c800178	0.0156257
249	0x3a5d9379	0.0008452456
250	0x3c067a13	0.008207816
251	0xbc6a6606	-0.014306551
252	0xbc751541	-0.014958681
253	0x3b97f1d1	0.004636981
254	0xbbca6ef6	-0.0061777784
255	0x3c64df43	0.013969245

sequential_1/dense_1/MatMul f4 [256, 128]
0	0xbc185819	-0.009298348
1	0x3d35486e	0.044258527
2	0x3ca8d16b	0.02060767
3	0xbdf472d8	-0.11935967
4	0xbd8d9db1	-0.06914843
5	0x3def3b19	0.11681194
6	0xbdc4f785	-0.09617523
7	0x3dc0fa4f	0.094227426
8	0xbc4e8fca	-0.012607524
9	0xbd9d9924	-0.07695225
10	0xbdd76836	-0.105179235
11	0xbdbdf0cb	-0.09274443
12	0x3d636b60	0.055522323
13	0xbdbb611c	-0.091493815
14	0xbde3fbdb	-0.11132022
15	0x3c932eb7	0.017966611
16	0xbc8be7dc	-0.017078333
17	0xbc8b8a5b	-0.017033746
18	0xbc550e4a	-0.013003895
19	0x3d4071ca	0.046983518
20	0x3c99b3a9	0.018762426
21	0x3d973559	0.07383222
22	0xbd69f684	-0.05711986
23	0x3dc08757	0.09400814
24	0xbd18749a	-0.037220575
25	0x3c6cc29a	0.0144506935
26	0xbda92459	-0.08258886
27	0xbd29e9aa	-0.041482605
28	0x3cd3937b	0.02582716
29	0x3dad30e1	0.084565885
30	0x3d598714	0.053107336
31	0xbd38f9fc	-0.04516028
32	0xbd70dc2c	-0.058803722
33	0x3cf15a81	0.029462101
34	0x3d7916b0	0.060812652
35	0xbd64ae47	-0.055830266
36	0x3c83ffe1	0.016113224
37	0x3cee82f9	0.029115187
38	0x3dbaa6d8	0.09113854
39	0x3c942c80	0.018087626
40	0x3d123d51	0.035703007
41	0x3d64421a	0.0557271
42	0xbdd6f7b8	-0.10496467
43	0x3ddf36ae	0.10899101
44	0xbdbb4332	-0.09143676
45	0x3d972cd8	0.073816
46	0x3ddf5219	0.10904331
47	0xbdbe0a8a	-0.09279354
48	0xbdf8bbb0	-0.121451735
49	0xbd9b8a15	-0.075946964
50	0xbd1f1814	-0.038841322
51	0xbde12b3b	-0.10994574
52	0xbdb72455	-0.08942477
53	0xbde264c7	-0.11054378
54	0xbc183b73	-0.009291518
55	0xbd2b6f23	-0.041854035
56	0x3d82a389	0.06378848
57	0xbc514331	-0.012772367
58	0xbd0a1dac	-0.033719704
59	0x3ba98263	0.005173014
60	0xbd1eb63d	-0.038748015
61	0x3d7c59f7	0.061609235
62	0xbd532e67	-0.051557925
63	0xbd7f14ae	-0.06227558
64	0x3d4631db	0.04838739
65	0x3d1bb704	0.038016334
66	0x3dbd874f	0.09254324
67	0xbd53f481	-0.05174685
68	0x3d8706a2	0.06593062
69	0xbe047e89	-0.12938894
70	0xbde99c29	-0.11406738
71	0xbd5c5f5f	-0.05380189
72	0x3da4af8b	0.08041295
73	0x3d665864	0.05623664
74	0xbda37866	-0.079819486
75	0x3dd665df	0.10468649
76	0xbb640168	-0.0034790877
77	0xbdc00db7	-0.09377616
78	0x3dcf0233	0.10107841
79	0x3d3053fa	0.043048836
80	0x3cabbeeb	0.02096506
81	0xbd8a38cf	-0.06749117
82	0x3d7471a8	0.059678704
83	0xbdc04f42	-0.09390117
84	0xbd93d90e	-0.07219134
85	0xbde5f9d6	-0.11229293
86	0xbd3e4d2e	-0.046460323
87	0x3d5a0755	0.05322965
88	0x3d1a9e30	0.037748516
89	0x3dee91a6	0.11648874
90	0x3d8ecb08	0.06972319
91	0xbdf393dc	-0.11893436
92	0xbdc0e424	-0.09418514
93	0x3d80105c	0.0625312
94	0xbd7191bb	-0.05897687
95	0x3c2fcce3	0.010730001
96	0xbd4b2ff4	-0.04960628
97	0x3deddd35	0.116144575
98	0x3b9482aa	0.004532178
99	0xbc02ecbc	-0.007991012
100	0xbc7437c2	-0.014905872
101	0x3d8f36c3	0.06992867
102	0x3d6c0dc9	0.057630334
103	0xbe0c31a9	-0.13690819
104	0xbb8288f5	-0.0039836117
105	0xbdc61840	-0.09672594
106	0x3d2f2e7d	0.042768944
107	0xbd8aba4e	-0.06773816
108	0xbce9e089	-0.02854945
109	0x3cb27f59	0.02178924
110	0x39f5b71e	0.00046866474
111	0x3d3992c0	0.045305967
112	0x3da8b000	0.08236694
113	0x3d1e5abd	0.038660754
114	0x3d445516	0.047932707
115	0xbd61cd6b	-0.055127542
116	0xbdb47f13	-0.088133
117	0xbbcc847c	-0.0062413793
118	0x3cd49fef	0.025955169
119	0x3ca9a752	0.020709667
120	0x3d748d72	0.059705205
121	0x3d1800c0	0.03711009
122	0x3d8d8aea	0.069112614
123	0x3d5d452e	0.054021053
124	0x3d064457	0.032780018
125	0x3d087514	0.03331478
126	0xbdd3b238	-0.10336727
127	0xbdcd6793	-0.10029521
128	0xbc397370	-0.011319026
129	0xbd00fc77	-0.03149077
130	0xbcea02b5	-0.028565744
131	0x3d93e044	0.0722051
132	0x3d76fcc1	0.06029964
133	0x3dae2557	0.08503216
134	0xbd3ab206	-0.045579933
135	0x3de53519	0.11191768
136	0xbdc94bc9	-0.09828908
137	0x3d53a582	0.051671512
138	0x3d8e173c	0.06938025
139	0x3d8f89e5	0.07008723
140	0xbd69518c	-0.056962535
141	0x3d044f86	0.032302402
142	0xbc8dce6e	-0.017310347
143	0x3bfc6621	0.0077026044
144	0x3cd9a5be	0.02656829
145	0xbc17578c	-0.009237181
146	0x3e07b34d	0.13251992
147	0x3db9a573	0.0906476
148	0x3cbe1432	0.02320299
149	0xbd8c2568	-0.06843072
150	0x3cddf8b4	0.02709613
151	0xbd974121	-0.07385469
152	0x3c954bee	0.018224683
153	0xbdc98516	-0.09839837
154	0xbd955894	-0.072922856
155	0xbdcdd5a8	-0.10050517
156	0x3e0a48ec	0.1350438
157	0xbcf3739e	-0.029718217
158	0xbd90d6db	-0.070722304
159	0xbcf27b81	-0.029599907
160	0x3daa9a7a	0.08330245
161	0x3de07a85	0.10960869
162	0xbd9567f2	-0.072952166
163	0xbdc81a83	-0.09770682
164	0x3c2dbad5	0.010603626
165	0x3bc87afc	0.0061181765
166	0x3d05f450	0.032703698
167	0x3b41aa96	0.002955114
168	0xbd29d65a	-0.041464187
169	0x3d32bcc4	0.043637052
170	0xbc9b7b36	-0.01897965
171	0x3cc9c2e5	0.024629066
172	0x3de0dcb8	0.10979599
173	0x3d25ce0d	0.04047971
174	0x3db3c2a2	0.08777358
175	0xbd36e113	-0.04464824
176	0xbd66f20c	-0.056383178
177	0xbd304c4a	-0.043041505
178	0xbd89b248	-0.067234576
179	0x3d2dc8b0	0.04242772
180	0x3d5c7a6c	0.053827688
181	0xbc36b3ef	-0.011151298
182	0xbdf0cb6a	-0.11757548
183	0xbc9a1a98	-0.018811509
184	0x3dcf5e8b	0.101254545
185	0x3caf10bf	0.02137029
186	0xbd3b1b11	-0.04568011
187	0xbd59feed	-0.05322163
188	0x3d85a19a	0.06524964
189	0xbab8df1b	-0.0014104577
190	0x3dc00994	0.09376827
191	0x3d2e24d3	0.042515587
192	0xbd906e2f	-0.07052266
193	0xbcdb2453	-0.02675072
194	0xbcaaf40a	-0.02086832
195	0xbdaef87b	-0.08543488
196	0x3d85edb6	0.065394804
197	0xbd2c748a	-0.042103328
198	0x3cf95baa	0.030439217
199	0xbcaa2574	-0.020769812
200	0x3cf0c41f	0.029390393
201	0x3b21d67e	0.0024694498
202	0xbca732ba	-0.02040993
203	0xbdb3a470	-0.08771598
204	0xbd9c2a51	-0.07625259
205	0x3d990ed4	0.07473531
206	0x3db2815e	0.08716081
207	0x3d6c75f0	0.05772966
208	0xbce06240	-0.0273906
209	0x3da741f6	0.08166878
210	0x3dc5a60f	0.09650814
211	0xbdac8d60	-0.08425403
212	0xbcbb7f08	-0.022887722
213	0x3cc727ce	0.024310973
214	0x3d2088f0	0.039193094
215	0xbdd3bff7	-0.10339349
216	0xbdd1f067	-0.10250931
217	0x3deef5a1	0.11667944
218	0x3d9391e3	0.0720556
219	0x3d2ea27c	0.042635426
220	0x3d9ed431	0.07755316
221	0x3d5b25f8	0.053503007
222	0x3d7233d3	0.059131455
223	0x3dc94f46	0.09829573
224	0x3cf44246	0.029816758
225	0xbbbf2df7	-0.005834337
226	0xbd4ed2e5	-0.050494093
227	0xbdbb4ce1	-0.09145523
228	0x3da9e3a0	0.08295369
229	0x3d3348b8	0.043770522
230	0xbc01948f	-0.007908954
231	0x3dd4376e	0.10362135
232	0xbd1f4130	-0.038880527
233	0x3d628d35	0.055310447
234	0xbc8d3e04	-0.017241485
235	0x3da7a8cf	0.081864946
236	0xbd8b6797	-0.068068676
237	0xbdea71b4	-0.114474684
238	0xbcf36917	-0.029713197
239	0xbc3922e8	-0.011299826
240	0xbd2cf50b	-0.04222588
241	0x3daa211c	0.08307096
242	0xbdddc293	-0.10828128
243	0xbdb972f8	-0.09055132
244	0xbdb4f874	-0.08836451
245	0x3d80d3a6	0.06290369
246	0xbdaa18c0	-0.08305502
247	0x3df3d507	0.11905866
248	0x3dfb9df2	0.12285985
249	0xbd8a8026	-0.067627236
250	0xbd0b40be	-0.03399729
251	0x3df16dea	0.117885426
252	0x3daa032f	0.083013885
253	0x3cea314e	0.028587963
254	0xbc209629	-0.009801426
255	0x3d6dfa28	0.058099896
