src/main/resources/models/asl_modelov2_pruebav2.tflite (tflite, 74396 bytes, 6 tensors)

arith.constant f4 [25, 64]
000000 ad 73 b1 bf 35 2a f7 3d 08 5a 07 bf 13 83 9d bf
       -1.3863426 0.12068597 -0.5287175 -1.2305626
000010 e0 17 5c bf dd e0 4e be 72 9f fe ba 4e c3 93 bf
       -0.8597393 -0.20202966 -0.001942618 -1.1543977
000020 3f 56 d9 3e d7 8b 69 bf 43 73 a2 3e 6f 01 9a 3e
       0.42448613 -0.91229004 0.31728563 0.3007922
000030 7a 3b 04 3f f7 7c 67 3d 7f 5c 61 3c 1c b0 a4 3e
       0.51653254 0.05651566 0.013754963 0.3216561
000040 aa f1 87 bf 09 e6 9f 3e a8 6a a3 3e 6d 8d e2 be
       -1.0620625 0.3123019 0.3191731 -0.44248524
000050 99 2b cf bf 8e fd f3 be d8 60 b9 bf cc 5c 74 3e
       -1.618518 -0.47654384 -1.4482679 0.23863524
000060 71 dc b2 bf b6 8d 84 3e 87 32 83 3e ce 66 3d be
       -1.3973523 0.25889367 0.25624487 -0.18496248
000070 89 ae ab 3e 62 8e e2 bf 1f 66 bd be 74 87 95 3e
       0.33531597 -1.7699702 -0.36991975 0.29204905
000080 f8 1e 05 3e ae 17 49 bf 51 cd 16 bf c0 c4 bd be
       0.13000095 -0.7855176 -0.5890704 -0.3706417
000090 65 17 43 3e 31 67 ad 3e 61 6e 55 3c 0c 64 57 bf
       0.19051893 0.3386779 0.013026805 -0.84137034
0000a0 22 ea 2f bf 98 07 d6 3e 9b 2c 30 bf 26 e0 a5 bf
       -0.68716633 0.4180267 -0.6881806 -1.295903
0000b0 d8 66 8f 3e db e5 b2 3e 0d ea 01 bc 7c d5 44 3e
       0.2800815 0.3494099 -0.007929337 0.19222063
0000c0 03 d1 db be 1a 45 b2 bf 57 d6 31 3e 2d ca 61 3e
       -0.429329 -1.3927338 0.1736692 0.2204978
0000d0 bc c8 f7 3d 71 dc bf be 96 e3 25 3e d4 67 66 bf
       0.12098834 -0.3747287 0.16200098 -0.9000218
0000e0 b2 0d 88 bf 39 15 f1 bd 25 ed 34 bd 99 8e 9f 3d
       -1.062918 -0.11771626 -0.04417147 0.0779087
0000f0 69 a2 a1 3e 2d 90 35 be a1 53 84 3d fd 26 aa 3e
       0.31569222 -0.1773078 0.064612634 0.3323287
000100 60 a4 08 3f 9d fe bf 3e 68 f3 f0 3e 4f 02 90 be
       0.53375816 0.37498942 0.47060704 -0.2812676
000110 89 fb a5 3e dc be 2e be bc 88 67 bf 32 fc 9d 3e
       0.3241847 -0.17064995 -0.90443015 0.30856472
000120 14 ac 44 bf c3 76 e5 3e 5a 4a 6d bf 47 0e b9 be
       -0.7682507 0.4481717 -0.92691576 -0.36143705
000130 ea 91 c6 bf fc 45 13 bf d2 93 8e 3e b6 87 13 bf
       -1.551328 -0.5752866 0.27847153 -0.57628953
000140 cd ae 9a 3c c5 04 ad bf 4f e8 13 3e 9e 1b f9 3d
       0.01888218 -1.351708 0.14444087 0.12163471
000150 6a 47 5c 3d eb d0 8a 3e 8e 29 db bf cd b8 78 bf
       0.053779043 0.27112517 -1.7122056 -0.97156984
000160 09 e8 8f 3e 63 c3 55 bd fd b3 8a bf d9 a7 46 3e
       0.28106716 -0.05218829 -1.0836178 0.19399966
000170 b5 99 6b bf 30 77 00 3e 95 1f 06 be 28 e0 a4 bf
       -0.92031413 0.12545466 -0.13097985 -1.2880907
000180 5c a0 0b be cc fe 94 bf a6 d7 51 3e b4 e3 b7 3e
       -0.13635391 -1.1640258 0.2049242 0.3591591
000190 8a 38 37 3e 31 a6 c0 bf 9d 0f 5b bf e6 37 98 3e
       0.17892662 -1.5050718 -0.855707 0.29730147
0001a0 1c 5a f4 3e 67 3f 69 bf 98 ea ec 3e a4 f8 f0 be
       0.47724998 -0.9111237 0.4627273 -0.47064698
0001b0 a2 54 ab bf 95 0d 0d 3e db f6 0f 3d bd 25 8e 3d
       -1.3385203 0.13774712 0.03514753 0.06940792
0001c0 e2 ff 3e bf c0 ab 17 3f e6 2f 8a bf 0f 0b ab bf
       -0.74609196 0.59246445 -1.0795867 -1.336275
0001d0 96 9f ba 3e 88 9d 36 3e ac ff d0 3e 55 e7 1b 3e
       0.3644988 0.17833531 0.40820062 0.15224965
0001e0 f5 df a6 bf d6 b8 b8 3e dc 4b 8b be 66 28 ab bf
       -1.3037096 0.3607852 -0.27206314 -1.3371704
0001f0 ae c3 c4 bf ab ea 48 3e 2d 31 ac bf 6d 37 52 bf
       -1.5372217 0.19620769 -1.3452507 -0.82115823
000200 1f 9f e3 3e a6 49 fb 3e b1 b3 58 3e a1 aa a8 3e
       0.44457337 0.49079627 0.21162297 0.3294268
000210 6c 3d 83 3d f0 e4 6a bf 1a c4 71 3e 0a cc 68 3e
       0.064082 -0.9175558 0.23609963 0.22734085
000220 d5 46 cb 3e e2 00 d8 be de 37 9e be 59 b5 ab bf
       0.39702478 -0.42188174 -0.30901998 -1.3414718
000230 2f 29 b8 3e ef 47 55 be 59 5e a5 3e f2 b0 d7 bc
       0.3596892 -0.20828222 0.32298544 -0.026329491
000240 3f b7 77 bf f7 48 82 bf 14 e4 d5 be 00 52 4e 3e
       -0.96763986 -1.0178517 -0.41775572 0.20148468
000250 54 5e c8 3e bf 8f 86 3e bd 4f 93 bf 04 56 f5 3b
       0.39134467 0.26281545 -1.1508709 0.0074870605
000260 62 0c b2 bd ae eb a0 bf 05 8e aa be 2c b2 c8 3e
       -0.08693768 -1.2571924 -0.33311477 0.39198434
000270 99 1a 5a bf e9 26 64 3d 43 fd 58 be a4 d3 1f bf
       -0.85196835 0.05570117 -0.21190362 -0.6243231
000280 a3 da 96 bf 9e 8c 56 be bd 1f c0 3e 38 e5 a9 3e
       -1.1785473 -0.20952079 0.37524214 0.33182693
000290 82 f7 45 3e b3 2b 92 be a8 8b a9 3e 07 aa 1c 3e
       0.19332698 -0.28548965 0.33114362 0.15299235
0002a0 0a 5f 29 bf 6b 5b 7b bf 21 b6 52 bf 6e bb 49 bb
       -0.66160643 -0.9818637 -0.82309157 -0.0030781883
0002b0 84 a0 ed be d5 ff 40 bf 25 05 4a bd c9 5e 93 3e
       -0.46411526 -0.7539037 -0.049321312 0.28783253
0002c0 87 a8 2e 3e 85 6b 2e bf 8f 64 8d be e1 bf 3f bf
       0.17056476 -0.6813281 -0.27615783 -0.7490216
0002d0 1c b1 d8 3e 2e ea cd 3e 59 05 02 bf 6c 76 ef bf
       0.42322624 0.40217727 -0.5078941 -1.8708014
0002e0 c9 ee cd bf de ad 59 bf 1c fc ad bf 12 bc 7d 3e
       -1.6088496 -0.85030925 -1.3592563 0.24778774
0002f0 ae 98 89 3d 12 e7 6a 3e 03 d3 53 bf ff 64 6e bf
       0.067185745 0.22939709 -0.82743853 -0.9312286
000300 db c2 c1 3e 32 95 8c 3e 86 9b 1b 3d dc 4c 9c 3e
       0.37843975 0.27457577 0.037990116 0.3052739
000310 09 c0 13 be 6f 60 c5 3d 6f 4e 06 3e 5d ae 58 3e
       -0.14428724 0.09637534 0.13115858 0.21160264
000320 04 8e 8e 3e b1 1a c3 bd 0a 01 20 bd c2 2c f8 be
       0.27842724 -0.09526575 -0.03906349 -0.48471648
000330 08 8c 8d 3d 0f 89 37 3e 03 b5 88 3e bc 87 53 bf
       0.069114745 0.17923377 0.267006 -0.8262899
000340 6d 58 b4 bf e0 44 05 3e 34 3a 35 bd 4c b6 4a 3e
       -1.4089485 0.13014555 -0.04424496 0.19796103
000350 29 35 4f be 4b dc 7c 3e 4a 59 3d 3e 03 ff 3e 3e
       -0.20235123 0.2469341 0.18491092 0.18651967
000360 fd ea 0b be 51 72 87 bd 0b 6b 65 bf b3 4f c7 3e
       -0.1366386 -0.06613601 -0.8961646 0.38927993
000370 81 88 2e bf f2 27 c6 be 28 80 bd be ca 43 5f bf
       -0.6817704 -0.3870235 -0.37011838 -0.8721281
000380 8d 42 c0 be f1 34 14 bf 5c 5c c4 3e 74 97 92 3e
       -0.37550774 -0.5789328 0.38351715 0.28631175
000390 7e 5d 93 3d f8 c1 a3 bf 8b 22 3b be 31 f1 a3 be
       0.071955666 -1.279357 -0.18274896 -0.32019952
0003a0 00 9e 02 3f fb 4f d0 be 7c bd 65 bf 81 2c ae be
       0.5102234 -0.4068602 -0.89742255 -0.3401833
0003b0 d0 36 9c bf 05 b1 89 be ca 51 30 be f3 a6 a6 3e
       -1.2204227 -0.26892868 -0.172187 0.32549247
0003c0 05 5c c1 3e 83 fb a9 3e 1c b6 72 bf 5f 1c 40 3e
       0.37765518 0.331997 -0.94809127 0.18760823
0003d0 5b a9 bf 3e 4c bd 99 3e 60 45 ba 3e fe 44 57 bf
       0.37433895 0.30027235 0.36381054 -0.8408965
0003e0 89 68 5a bd 6b c5 75 be e3 2e 45 bf 6d 25 17 be
       -0.05332235 -0.2400109 -0.7702467 -0.1476037
0003f0 49 d8 89 be 09 d9 2e 3e f5 87 7c 3d da ab d5 3e
       -0.26922825 0.1707498 0.061653096 0.41732675

arith.constant1 f4 [64, 128]
000000 50 9e 30 bd 25 52 6b 3e 49 11 32 3e fa 10 f9 be
       -0.04311973 0.22980554 0.17389406 -0.48645765
000010 f8 f6 b8 bc ad 9a f0 3e 49 60 91 3e d8 4f f5 3c
       -0.022578701 0.46993008 0.28393772 0.029945299
000020 84 1f 26 3f ef 72 1b 3e c4 33 22 3e 04 bf 29 3c
       0.6489184 0.15180562 0.1584006 0.010360483
000030 62 dd 29 3e c0 c2 be bc ae cc 36 be 48 29 21 be
       0.16588357 -0.023286223 -0.17851517 -0.15738404
000040 9c ed 90 bc b6 a8 2d 3d 2c 7c 00 3d e4 74 f8 bd
       -0.017691426 0.042397223 0.03136842 -0.1213167
000050 30 6d b4 bd 50 3e cc 3e 04 1d 64 3d 70 57 1c bb
       -0.08809888 0.3989129 0.055691734 -0.0023855828
000060 e6 81 88 be 09 47 0d 3e 1d 35 39 bf b7 c5 65 3d
       -0.26661605 0.13796629 -0.7234667 0.05609676
000070 d3 0d 7a 3f 70 58 24 be 71 20 a7 3c 07 39 af 3e
       0.97677344 -0.16049361 0.020401211 0.34223196
000080 58 91 08 3d 9f ca 5f bd c0 4a e2 bd e0 19 52 bc
       0.033341736 -0.054636594 -0.11049414 -0.012823552
000090 30 a2 8d 3f 9d 4f 10 3e 63 18 22 bd 27 88 24 be
       1.1065121 0.1409287 -0.03957404 -0.16067563
0000a0 52 d3 a6 3a a4 72 8a be bb 21 d4 bc cd c2 80 be
       0.0012727773 -0.2704059 -0.02589499 -0.2514862
0000b0 0f 56 1a 3e 53 e7 0b 3d b5 98 da 3c b0 ee ca be
       0.15071891 0.034156155 0.026684145 -0.3963523
0000c0 8a 35 3d bf 5d c4 b3 bd 22 91 23 bd 92 92 2b 3e
       -0.7390982 -0.08777688 -0.03993333 0.16755131
0000d0 ac 8d c1 be e1 3d 19 3e 90 dd f1 bd 73 69 01 be
       -0.378034 0.14965011 -0.11809838 -0.12637882
0000e0 d3 37 1e 3e 76 d9 6f bf 5a 5c ee 3d 2a 87 b3 3e
       0.15450983 -0.93691194 0.116387084 0.3506406
0000f0 64 1a 2a be 62 4a 04 3f 8d 55 fb bd d8 c7 32 bd
       -0.1661163 0.51676 -0.12272177 -0.043647617
000100 8d 52 87 3e 87 9c 8c 3d 08 db 87 bd 1e 38 90 be
       0.2643017 0.06865793 -0.06633574 -0.28167814
000110 88 14 e6 3e b0 bf b5 3d a4 c1 2a 3e 35 ab 84 3e
       0.4493754 0.08874452 0.1667543 0.2591187
000120 9d 76 72 3e ef c8 12 3e ec 1f b6 3d b8 4b 39 3f
       0.2367806 0.14334463 0.08892807 0.7238116
000130 ac a5 0a 3d 8c 6c cd be df c9 e3 bd bd 0b 6d 3b
       0.033849403 -0.40121877 -0.11122488 0.0036170327
000140 11 ae d4 bd cd 7a ab 3e d0 e9 2d bd 67 fb 0e 3d
       -0.10384763 0.33492127 -0.04245931 0.034907725
000150 62 49 e0 3d 56 46 70 bd 83 a4 13 3f eb e9 03 bf
       0.10951497 -0.058660828 0.576729 -0.51528805
000160 02 46 23 3d 09 aa 5f bd 2e 11 b2 3b c8 94 bd bd
       0.039861687 -0.054605518 0.005434177 -0.092568934
000170 aa 66 4e be 9d 92 a1 be ac bb 87 3d 3f 2a 4f be
       -0.2015635 -0.3155717 0.066275924 -0.2023096
000180 c5 4d 16 3e 9f b7 2c 3f 73 c4 0e be 72 81 22 3f
       0.14678104 0.67467684 -0.13942127 0.6347877
000190 d5 36 3b 3e b9 50 0a 3e 4b ab 96 bd 24 29 af be
       0.18282636 0.13507356 -0.0735689 -0.34211075
0001a0 96 5a ba 3d 65 2a f2 bd 3d 4e 39 3e f9 8c 32 3e
       0.09099309 -0.11824492 0.18096252 0.1743659
0001b0 d0 c8 01 bb ad 10 30 3e 62 fe 7c 3e 05 56 7b be
       -0.0019803531 0.17193861 0.24706414 -0.24544533
0001c0 82 2f 70 bf 0c 47 51 3d c4 e2 5a bd ee ba 09 be
       -0.9382249 0.051093146 -0.053438917 -0.13450214
0001d0 72 a0 1c 3c 2a 58 bf 3d bc 0c 48 3d 13 5d bd 3d
       0.0095597375 0.09342988 0.04884027 0.09246268
0001e0 75 95 0d bf cd ce b2 bd 97 22 6d 3d 32 a1 78 3e
       -0.5530618 -0.0873085 0.057894316 0.24280241
0001f0 0b 1d 24 3f 61 dc 60 bd bb fa 1a 3e 9b 29 1a 3f
       0.64106816 -0.05489767 0.15134709 0.60219735
000200 e0 0a cb bc 36 cc be 3e 30 5d 27 bd 62 cf 86 3d
       -0.024785459 0.37265176 -0.040860355 0.06582524
000210 24 d1 53 3d d5 b4 27 be f8 e6 f6 3d f8 a3 d5 bd
       0.051713124 -0.16377576 0.120557725 -0.10431665
000220 46 04 0a be 38 88 84 bd 56 ca 55 3d 92 ca 31 3d
       -0.13478193 -0.06471294 0.052194916 0.043406077
000230 ef a4 ee bd 2f 5b 2f 3e a7 60 18 3f a8 95 a4 bc
       -0.11652552 0.17124628 0.5952248 -0.020090893
000240 94 3f b7 be 53 ba e5 3d 5c fb 16 be 52 09 d8 3d
       -0.35790694 0.11217179 -0.14744323 0.10548653
000250 39 83 3a bc 3d b5 6c 3e 3f 0b 7d bd 29 51 23 3c
       -0.011383825 0.23116012 -0.061778303 0.009968081
000260 41 0e 2e bd 44 3c 66 3f a8 a9 87 be 6e 55 e3 bd
       -0.042494062 0.8993571 -0.26496625 -0.11100279
000270 ce 42 d0 3e 23 ff bb be 7f 94 9b bd 0b 3e 04 3f
       0.40675968 -0.3671809 -0.07596683 0.5165717
000280 83 64 c3 bd 2a 45 ac bd 90 3f 21 3e 53 ff ed bd
       -0.095406555 -0.084116295 0.15746903 -0.11620965
000290 12 a2 1e 3e b9 d3 01 3f 13 4f c8 be fa 44 b8 bd
       0.15491512 0.5071369 -0.3912283 -0.08997531
0002a0 f4 1f 1d bc 04 86 2e be 54 fa 11 3f cb 44 31 bd
       -0.009590138 -0.1704331 0.57022595 -0.043278497
0002b0 8d ab c8 bd 4d f1 bf 3e 92 29 a1 be e4 b6 f2 be
       -0.09798346 0.37488785 -0.31477028 -0.4740516
0002c0 1a 61 59 3c 96 e9 36 3d 2c 16 ad 3d 70 03 9b 3e
       0.01326778 0.04465636 0.084514946 0.3027606
0002d0 85 48 54 be fa 93 8b be 70 a4 f8 3c e0 c2 44 be
       -0.20730789 -0.27261335 0.030351847 -0.19214964
0002e0 7a 82 e3 3d d7 6a 44 be 50 99 2c bc dd c1 05 3f
       0.11108871 -0.19181381 -0.010534599 0.52248937
0002f0 a5 e0 9e bd 9a 5a 24 3e 32 81 52 bf bb d4 21 3e
       -0.07757691 0.16050187 -0.82228386 0.15803806
000300 fb 4c ce 3e 5d 4b 19 3e 50 b2 a9 3d 56 4f e6 3d
       0.40293106 0.14970155 0.082859635 0.11245601
000310 89 4b 1a 3f 60 bf ea bc a2 d8 8f 3e 8a 9b 52 3e
       0.6027151 -0.028655708 0.28094965 0.20567146
000320 77 18 22 3f ba cf fc be b9 44 c0 be a7 4a 13 be
       0.6331858 -0.49377233 -0.3755243 -0.14383946
000330 24 fb f9 bd b8 8e 90 3e d3 32 50 3f fa 82 a2 3e
       -0.122061044 0.28233886 0.8132755 0.31740552
000340 a5 52 bd bc 80 ee 7c bc 1e b8 61 3e 24 2c cd 3d
       -0.023110697 -0.015437722 0.22042891 0.10018185
000350 fd 3d d6 bb d0 37 06 3e 3c e5 a2 bd c3 24 1b bf
       -0.0065381513 0.13107228 -0.07953879 -0.6060297
000360 d9 17 61 bc a4 82 6c bd 2f 6f b4 3d 30 94 51 3c
       -0.013738596 -0.057741776 0.08810269 0.012791678
000370 73 2d 84 be 45 7c cc 3e c2 05 2a 3d 6a 56 13 be
       -0.25815925 0.3993856 0.041509397 -0.14388433
000380 38 6e fd bd 72 df 15 3e 7b da 12 be 26 be 9b 3d
       -0.12374538 0.14636019 -0.14341156 0.07604627
000390 f9 54 5c 3f 5d 91 ab bd 97 77 0d bf 63 ee d6 be
       0.8606716 -0.08377335 -0.55260605 -0.4197875
0003a0 c7 d7 9c bc 65 6a d8 bd ce 2f 40 be 7b 34 b5 bd
       -0.01914586 -0.10567168 -0.18768236 -0.088479005
0003b0 b6 29 0e bd c5 5f 15 bf 5d ab 24 3f b3 6d cd 3e
       -0.034707747 -0.5834926 0.6432398 0.40122756
0003c0 79 51 68 be 30 41 e7 bc 82 d3 b5 3d 2b 45 84 3d
       -0.2268733 -0.028229326 0.088782325 0.06458505
0003d0 62 1d 04 3f 0a 07 f1 3d 0c 05 1a be cd 39 42 bf
       0.51607335 0.11768921 -0.15040988 -0.75869447
0003e0 9d 34 4a 3e 59 41 4f 3c 7d 93 be bc 25 e5 24 bd
       0.19746633 0.012649857 -0.023263687 -0.04025759
0003f0 64 6d ca 3e 42 9e 19 3f 00 6b 77 3d 53 23 11 3f
       0.39536583 0.6000711 0.060404778 0.56694525

arith.constant2 f4 [25]
000000 6d f5 8a 3b 14 2c f1 3d 4c c5 e2 bc ec 9c bc bd
       0.004240683 0.11775985 -0.02768197 -0.09209618
000010 4d 0d bd bd e8 e2 c3 be 77 ff 1a be 5e 46 8d bd
       -0.092310525 -0.38259053 -0.15136515 -0.06898187
000020 22 a6 bf be 67 44 a1 3d 69 4b e9 bc 2d 31 86 be
       -0.37431437 0.07874375 -0.028478341 -0.26209393
000030 98 94 34 3e 69 08 8c 3e 86 b4 9c be 5e 07 ac 3d
       0.17634809 0.27350166 -0.30606478 0.08399843
000040 4b 97 0e be 59 bd 8c 3e c6 cf a1 3d 9f 00 ac 3e
       -0.13924901 0.2748821 0.07900958 0.33594224
000050 3e c6 32 be be 17 7d be c0 0a 77 3e a0 8c 2b 3d
       -0.17458436 -0.24716088 0.24125195 0.041882157
000060 cd 32 ac 3e
       0.33632508

sequential_1/dense_1_2/BiasAdd/ReadVariableOp f4 [64]
000000 69 9b 42 3e f5 1b 07 be 42 38 ee bd 63 23 b4 3d
       0.19004597 -0.13194259 -0.11631824 0.08795812
000010 a1 be fb 3d 84 27 e4 3d d3 28 41 3e 87 10 89 3e
       0.12292219 0.111403495 0.1886323 0.26770422
000020 8a b8 d7 3b a4 d2 bb 3d ca 26 62 3e c1 26 03 3e
       0.006583278 0.09171036 0.2208511 0.12807752
000030 16 64 20 3e 57 ee 13 3d 7e 83 33 3e 11 eb 5e 3e
       0.1566318 0.03611597 0.17530629 0.21769358
000040 72 82 24 3e 34 fa cd 3e 9a f9 a2 3d 15 b5 47 bd
       0.16065386 0.40229952 0.07957764 -0.048756678
000050 18 f6 21 3e 40 ab 75 3d 7b a7 11 3e 5a dc 7b 3e
       0.15816534 0.05997777 0.14224045 0.24595776
000060 45 9d b3 3d 50 76 0b 3e 47 ce 90 3e 86 39 ff 3d
       0.08770231 0.13619351 0.28282377 0.124621436
000070 23 9c 01 3e 75 33 9e 3d 2a a7 f7 3d 77 ae 14 3e
       0.12657218 0.077246584 0.12092431 0.14519678
000080 66 96 cb 3e fa dd 58 3e 5f 01 66 3e 67 d9 93 3d
       0.39763182 0.21178427 0.2246146 0.072192006
000090 7f 15 f0 bc 15 b2 bd 3e a4 ad 0c be 83 e6 8a 3e
       -0.029307125 0.37049928 -0.13738114 0.2712899
0000a0 d2 1f e5 3c c2 6f a3 3e ae 04 89 bd df 70 1c 3d
       0.027969275 0.31921202 -0.06690346 0.03819358
0000b0 dc 2a 9e 3e 20 e6 a7 3d 3e 30 93 3e c7 7e 7d 3e
       0.30892074 0.0819819 0.28747743 0.24755393
0000c0 f9 29 97 bc 2c 53 65 3e b8 66 8f 3e bf 52 9c 3e
       -0.018452631 0.22395009 0.28008056 0.3053188
0000d0 2c ec d8 bc a2 df a1 3c d2 3f 63 3d 92 47 b6 3e
       -0.026479803 0.019759957 0.055480786 0.3560148
0000e0 6b b6 55 3e e6 4a 37 3d 90 94 2c 3d e0 0b d2 3d
       0.20870368 0.044749163 0.042133868 0.10256171
0000f0 b8 f1 1f 3e fb fd 96 3e 63 ad 73 3e 51 98 4d 3e
       0.15619552 0.29490647 0.2379661 0.20077635

sequential_1/dense_1/BiasAdd/ReadVariableOp f4 [128]
000000 00 00 00 00 4f 12 f6 3d 00 00 00 00 15 da 84 bd
       0.0 0.12015211 0.0 -0.06486908
000010 00 00 00 00 b5 58 24 bc f0 6a 9f 3d 00 00 00 00
       0.0 -0.010030915 0.077840686 0.0
000020 25 9d 6c bd 00 00 00 00 07 90 94 bc 94 c5 0f 3d
       -0.057767052 0.0 -0.018135084 0.035100535
000030 07 a1 b4 bc 00 00 00 00 1f 77 bc 3d 00 00 00 00
       -0.02204944 0.0 0.09202408 0.0
000040 46 38 2b bc 6a f8 e5 3d 81 c3 49 bc b9 b6 02 3e
       -0.010450428 0.11229022 -0.012314678 0.12765016
000050 c8 2e 80 bc fd c4 5c bc e6 92 50 bd 81 41 00 3e
       -0.015647307 -0.0134747 -0.050921343 0.12524988
000060 46 c4 52 3d e5 9c 4d 3d 96 58 78 bd f5 38 0a be
       0.051456712 0.050198454 -0.060631357 -0.1349829
000070 8e e7 23 3d a7 ca 31 3b 62 32 ae bc 79 c2 63 3e
       0.04001575 0.0027128847 -0.021264259 0.22242154
000080 00 00 00 00 5d a8 0f bc cc 8a b3 bc 00 00 00 00
       0.0 -0.008768168 -0.02191677 0.0
000090 88 9f 37 3e 82 dc c9 3d 59 7b e9 bc c2 40 b0 3c
       0.1793195 0.09856512 -0.0285012 0.021515254
0000a0 7a 27 0d 3d d8 ad c4 3d 64 c3 fb bc 97 c7 12 bd
       0.034461476 0.096034706 -0.030732818 -0.035834875
0000b0 00 00 00 00 6e 52 9d bb 1d c7 e9 3d 6a 9b 09 3d
       0.0 -0.004801086 0.11414931 0.03359548
0000c0 c1 3c 2a bc e1 70 c0 bc db d8 30 3e 53 30 5d 3e
       -0.010390461 -0.023491325 0.17270224 0.21600465
0000d0 d8 07 fd bc be 85 cc bd 00 00 00 00 40 42 a3 3c
       -0.03088753 -0.09986447 0.0 0.019929051
0000e0 5d 04 b4 3d 71 54 5c 3c f6 6e 02 bc 53 93 f1 3d
       0.08789895 0.013447867 -0.007961025 0.11795678
0000f0 50 21 fa 3c eb 3a 33 3e 56 3c b3 bc fb 5b e4 bb
       0.030533463 0.17502944 -0.021879356 -0.0069689727
000100 1e c8 86 bc 7b 06 dd 3a a3 f0 62 3d 8f f2 d7 3b
       -0.016452845 0.0016862893 0.05540527 0.0065901945
000110 bf 67 62 3d 45 0e 21 3d 80 4c 43 3e e4 ba 4e 3d
       0.05527472 0.03932025 0.19072151 0.0504712
000120 11 a8 5e 3d 16 da 12 3d f2 34 d6 bd d5 42 1f 3c
       0.0543595 0.035852514 -0.10459317 0.009720524
000130 62 12 a9 bb 7e 5a 8d 3d 05 a6 b2 bc 7f 74 cf 3d
       -0.005159662 0.06902026 -0.02180768 0.10129642
000140 96 19 97 bb d1 58 6f 3e 74 65 46 3e ac 8e 0f 3e
       -0.0046112044 0.23373725 0.19374639 0.14019269
000150 80 de bf bc 04 87 0e bc 3d 9a 34 3d c7 dc 55 bd
       -0.023421526 -0.008699182 0.044092406 -0.052212503
000160 4b 24 c7 bc 10 6e 2c bc 2b c0 0c 3d c0 98 8d bc
       -0.024309298 -0.010524288 0.034362953 -0.017284751
000170 6d 06 b4 bd 76 ba f6 3d 08 16 2e bb 6a 00 88 bb
       -0.08790288 0.12047283 -0.0026563425 -0.00415044
000180 00 00 00 00 b3 5c 5b 3c 00 00 00 00 85 d4 2a bd
       0.0 0.0133888 0.0 -0.04170658
000190 04 76 bd bb 11 ad 20 bc 74 6d ce 3d f4 61 87 bd
       -0.005781891 -0.009806887 0.1007947 -0.0661048
0001a0 9b da df bb 75 39 6f bc 59 2d 3e bd 00 00 00 00
       -0.0068314797 -0.014601101 -0.046429966 0.0
0001b0 58 6b 10 3e 16 06 e1 3c 58 e6 12 b9 cd fb 42 3d
       0.14103448 0.027468722 -0.00014009455 0.047603417
0001c0 c1 16 44 bd 00 00 00 00 00 00 00 00 7b bd f2 bb
       -0.047873262 0.0 0.0 -0.0074078417
0001d0 89 31 02 3e de 58 3e 3c 73 4b 27 bc a3 61 b6 bc
       0.12714209 0.011617867 -0.01021086 -0.022263354
0001e0 97 d6 3d 3d 13 b6 e5 bc 46 94 0d bc 00 56 d5 3d
       0.046347227 -0.028040921 -0.008641308 0.10416794
0001f0 f2 29 ae bc 23 fe 70 3d 00 00 00 00 c9 56 54 bc
       -0.021260235 0.058836114 0.0 -0.012960144

sequential_1/dense_1/MatMul f4 [128, 63]
000000 a0 0a da bc a9 b8 2d be 60 3d ce bb a6 c9 60 bd
       -0.026616395 -0.16964974 -0.0062939376 -0.054879807
000010 5c 95 fb 3d a0 1d a8 bd 5e c8 fb bd 10 20 ea 3c
       0.122843474 -0.082087755 -0.122940764 0.028579742
000020 74 58 b5 3d 70 5f fd 3d 88 69 02 3e e4 3b 80 bd
       0.08854762 0.12371719 0.1273557 -0.06261423
000030 58 6f 7f 3d 84 94 28 3d ad 89 84 bd b0 a7 26 3c
       0.062362045 0.04115726 -0.06471572 0.010171816
000040 86 b0 04 3e 70 7b 30 bc 80 20 eb 3d ae 3e cd bd
       0.12957963 -0.010771617 0.11480808 -0.10021721
000050 16 11 ef bd bd 24 25 be 34 c3 3e bd a6 7e 2d be
       -0.11673181 -0.16127296 -0.04657288 -0.16942844
000060 68 23 e5 3c 40 7d 7e bc 9e 99 04 3e 12 01 10 be
       0.027970985 -0.015532792 0.12949225 -0.14062908
000070 4c 2b 02 bd 74 8c 18 3d d2 c8 0a 3e 6a eb 5a bd
       -0.031779572 0.03724332 0.1355317 -0.053447165
000080 d4 15 49 3d 4e d3 18 be 98 f9 32 be f8 c0 8e bd
       0.049093083 -0.14924356 -0.17478025 -0.069703996
000090 4c cb ab 3d 3a 6e 06 be 70 fe cf 3c 34 9e b3 3d
       0.08388385 -0.13127986 0.02538988 0.08770409
0000a0 14 20 52 bd dc 35 38 3d 00 a9 68 3a 88 74 31 3e
       -0.051300123 0.04497324 0.00088752806 0.1732961
0000b0 f0 4d f1 3c e3 f8 8e bd e1 01 b8 bd ec d7 8c bd
       0.029456109 -0.06981065 -0.089847334 -0.06877121
0000c0 52 98 24 be b0 cb 56 bd 58 8c a7 bc 80 9b db bb
       -0.1607373 -0.052440345 -0.020452663 -0.0067018867
0000d0 18 a8 1c bd 10 dc 5b 3d 50 e1 c8 bc c0 12 ee bd
       -0.038246244 0.053676665 -0.0245215 -0.1162467
0000e0 ac 42 e8 3d b8 9a 5c 3d 0a f9 d6 bd d0 51 ba 3d
       0.11340842 0.05385849 -0.10496719 0.09097636
0000f0 69 b7 2c be fc 05 50 3d 32 1a c3 bd f0 af a4 be
       -0.1686684 0.050786957 -0.09526481 -0.3216548
000100 e6 19 1d 3e 82 ee a4 3d 79 c4 f1 bd 4c d0 55 3e
       0.1534191 0.08053304 -0.11805052 0.2088024
000110 90 50 ef 3d fd 6a 56 bd 6f 1a f2 3d 1e e5 ae 3e
       0.11685288 -0.052348126 0.11821448 0.34159178
000120 86 7e 6f 3b 6a ee dd 3e 13 44 af 3d ac 47 85 be
       0.003654392 0.43345958 0.08557906 -0.26031244
000130 a9 69 30 3f 30 1e 19 be fd 4c 78 bd 11 73 58 be
       0.68911225 -0.14952922 -0.060620297 -0.21137644
000140 9c 73 91 bd c4 57 a2 3d 90 1a 8e be e8 54 d8 3e
       -0.07102129 0.07926896 -0.2775464 0.42252278
000150 17 b2 81 3b f8 04 8e be 86 cf eb 3e f0 ba 6a bc
       0.0039579975 -0.27738166 0.46056765 -0.014326796
000160 ca 63 af be 2f 6f e2 3e 09 16 50 be cf 3d 67 3d
       -0.3425582 0.4422545 -0.20320906 0.05645543
000170 f1 c2 8d be 4b fd 8d 3d 5a 75 27 be 10 a0 89 bd
       -0.2768779 0.069330774 -0.1635336 -0.067199826
000180 3a 4a 96 3d 6f 14 09 3e 32 f3 bd 3c f5 77 7e 3e
       0.07338376 0.13386701 0.023187254 0.24850447
000190 25 ae 48 3e 74 4f d3 3d 6e a7 7a be 47 fd 01 be
       0.19597681 0.10317889 -0.24477932 -0.12694274
0001a0 4a cf fb be 1b 53 c0 bc 23 1a 6d 3d 2b 8f 00 3e
       -0.49181587 -0.023477128 0.057886254 0.12554614
0001b0 e9 93 35 3e 8d 8c 0d be 5b ae 0d bc 7f 7b c4 3c
       0.17732204 -0.13823147 -0.008647527 0.023984669
0001c0 90 62 56 be 8e c0 f4 bd da 1f 2f bd 31 f9 e5 bd
       -0.20936036 -0.119507894 -0.042754985 -0.1122917
0001d0 d2 20 0e bf 58 e0 ce 3d a1 43 3e bd f3 81 b7 bc
       -0.5551883 0.10101384 -0.046451215 -0.022400832
0001e0 60 68 75 3e 4b 18 4b 3d 97 e7 c6 3e c6 4b 75 3e
       0.23965597 0.049583714 0.38848564 0.23954687
0001f0 6f 99 18 be 3f c3 fb 3e 05 c0 07 be 57 93 9d bd
       -0.1490228 0.49172398 -0.13256843 -0.076941185
000200 23 1b fb bd 5d 39 26 be e0 5c 5b 3c 00 c7 c6 3b
       -0.12261035 -0.1623282 0.013388842 0.006066203
000210 d0 ff 97 3c 80 d2 47 bc dc a0 fe 3d 50 70 ab 3c
       0.018554598 -0.012196183 0.12433025 0.020927578
000220 a6 5e 1e 3e dc a5 23 be 79 be 26 be f4 cf 5d 3d
       0.15465793 -0.15981239 -0.16283597 0.054153398
000230 ca 43 34 3e 34 1a 03 3e a9 eb d4 bd 70 02 0a 3c
       0.17603984 0.12802964 -0.10396511 0.008423433
000240 70 fe 61 3d ae 0e 1f 3e 47 3c d9 bd c0 71 8a bc
       0.05517429 0.15532944 -0.106072 -0.016899943
000250 08 76 9e bd 50 31 fd 3d 64 31 66 bd 68 9b a1 3d
       -0.077373564 0.12362921 -0.056199446 0.078909695
000260 30 f4 fa 3d ea 6b f7 bd fa 25 cd bd b2 33 00 be
       0.12253606 -0.1208113 -0.10017009 -0.1251972
000270 c0 c6 8c bd bc b7 15 be ee 5d 2b 3e 6c f8 d3 bd
       -0.06873846 -0.1462087 0.1673505 -0.10350117
000280 00 8b aa 3d 65 95 a7 bd fa 61 1f 3e 40 be ea 3c
       0.083272934 -0.081827916 0.15564719 0.028655171
000290 92 e6 85 3d bd 07 00 be d0 6c 4e bc 80 f4 a0 bc
       0.065381184 -0.12502952 -0.012599185 -0.019647837
0002a0 1c e8 15 3d 98 ca a5 3c 4a 06 d9 bd a6 32 02 3e
       0.03659831 0.020238206 -0.10596903 0.12714633
0002b0 54 fe 9d 3d 08 57 19 3d e4 31 cf 3d c0 f3 48 3d
       0.07714525 0.037436515 0.10116938 0.049060583
0002c0 18 69 18 3e 02 02 2c 3e fc 60 d5 3d ec 42 fe 3d
       0.1488384 0.16797641 0.10418889 0.12415108
0002d0 c4 17 93 3d d5 37 d1 bd 59 0e de bd 70 0b 0e bd
       0.07182267 -0.10215727 -0.1084258 -0.034678876
0002e0 00 d7 5f ba 51 2f 98 bd 39 79 2b be 4c 92 14 be
       -0.00085388124 -0.074309 -0.16745462 -0.14508933
0002f0 9c 03 11 3e f4 c9 62 3e 24 b8 d7 3d 25 03 1d 3d
       0.14161533 0.22147352 0.10533169 0.038333077
000300 5e 3e 34 3d 4e cc b4 bc 4d ff 18 bf 11 3a eb bd
       0.04400479 -0.022070076 -0.5976456 -0.11485685
000310 e6 a7 4f be fc 5b f1 be 40 5d a0 be 1b ed 03 3d
       -0.20278892 -0.4714049 -0.31321144 0.032208543
000320 5b c7 16 be ef 79 02 bf aa 74 a3 bb e5 3d 5d bd
       -0.14724486 -0.50967306 -0.0049882727 -0.054014105
000330 48 f3 94 3e 96 a7 6a be 0d 13 34 be ca 61 1e 3e
       0.2909186 -0.22915491 -0.17585392 0.15466991
000340 28 79 d5 bd 0b ca df 3d 3b 90 36 3e 51 7c 5b 3d
       -0.10423499 0.109272085 0.17828457 0.053585354
000350 74 da 86 bb 6e ee 05 be 57 03 5d be 7c d7 e1 3d
       -0.004115397 -0.13079235 -0.21583305 0.110274285
000360 e0 3d 54 3e 7e d1 18 be 86 2e 99 3d 4f 5c 43 3e
       0.20726728 -0.14923665 0.07479577 0.19078182
000370 bb 55 07 3d b0 fb 03 3e 0f c9 f8 bd 29 1b 55 3d
       0.033040743 0.1288898 -0.12147724 0.052027855
000380 93 03 28 3e 94 9c 49 3e e4 92 07 be 7f ae 98 3d
       0.16407613 0.19688636 -0.13239628 0.074551575
000390 bd df 67 3d 36 73 52 be d4 fd f0 3e f3 1a 32 bd
       0.056609858 -0.20551762 0.47068655 -0.043482732
0003a0 d7 37 40 bd f6 f5 83 bd 86 a4 68 bd 3d 39 9b 3d
       -0.046928253 -0.06443398 -0.056797527 0.07579277
0003b0 3c b8 26 be 5b 47 66 3b 93 62 76 3e 41 24 ac be
       -0.16281217 0.0035137746 0.2406104 -0.3362141
0003c0 d4 7f 98 3d a2 f5 0c 3d 9f ba 18 3f 45 50 a0 bd
       0.07446256 0.03441394 0.5965976 -0.0782781
0003d0 68 42 22 3e 55 cd 17 be 41 e6 4e be 15 bb d9 3d
       0.15845644 -0.14824422 -0.20205022 0.10631386
0003e0 6d 29 70 be f7 31 18 bd 87 e5 fb 3e e3 3e 6c bd
       -0.23453303 -0.037157025 0.49198553 -0.05767716
0003f0 40 e9 de bc d0 f3 c7 3c b6 bf 1a 3e b0 4b 6f bd
       -0.027210832 0.024408251 0.15112194 -0.05842179
